model_checkpoints/model.pt (torch, 421959 bytes, 10 tensors)

structural_attn.structural_layer_0.att_l f4 [1, 16, 8]
000000 4a 87 f2 bd e1 4c 59 b9 5a 98 ca bd 65 62 e3 3d
       -0.118422106 -0.00020723372 -0.0989234 0.11102752
000010 85 51 45 be 7b df 2e be 1c 89 47 3e 31 2a 42 3e
       -0.19269378 -0.17077439 0.19485897 0.18961407
000020 e4 f3 bd 3d ea e0 68 be 56 b9 97 3e 11 55 f4 bb
       0.09275034 -0.22742048 0.29633588 -0.00745643
000030 c2 a3 28 be 94 97 56 be b1 1c 07 3d 8e 64 27 be
       -0.16468719 -0.2095626 0.032986347 -0.16346952
000040 a8 c8 2b 3e 73 bd bd bd 98 0c 12 3e 33 70 87 be
       0.16775763 -0.0926465 0.14262617 -0.2645279
000050 3b 4a 38 3e 40 cf 86 be 62 5e 17 3e a2 02 33 be
       0.17997067 -0.26329994 0.14782098 -0.17481473
000060 c1 9a 24 be f7 b0 5a 3d 42 e2 d9 3d 64 0c b3 bd
       -0.16074659 0.053391423 0.106388584 -0.08742598
000070 58 de 34 bd ec 9d 47 3d 84 21 88 3e 36 90 56 3e
       -0.044157356 0.04873459 0.2658807 0.2095345
000080 97 23 04 be 38 db 09 bd a1 be d9 bd 56 16 97 be
       -0.12904201 -0.03365633 -0.10632063 -0.29509228
000090 c0 29 1d 3e 68 58 81 3d c4 37 87 be 52 21 b6 bd
       0.15347958 0.0631569 -0.26409733 -0.08893074
0000a0 29 9b e9 3d aa 80 18 3d 27 53 b4 bd ee 4b 8f bc
       0.114065476 0.03723208 -0.088049226 -0.01749226
0000b0 ad 25 1f 3e a3 f9 38 be cb 62 ab be 51 e4 8e be
       0.15541716 -0.18063979 -0.3347381 -0.27908567
0000c0 8e 95 2a be 8d c5 f3 bd a8 c3 48 bc 8a 45 94 be
       -0.16658613 -0.11902914 -0.012253679 -0.28959304
0000d0 71 4f f1 3d a3 df 21 be 18 6e 30 bd 55 36 ad 3b
       0.1178273 -0.15807967 -0.043073744 0.005286018
0000e0 04 31 d1 be b6 f9 c9 bd 6d c6 f5 3d c7 95 17 be
       -0.40857708 -0.09862082 0.12000737 -0.1480323
0000f0 85 4b dd bc 4a 05 cd bd 4d eb 18 3e 3f cf 8e be
       -0.02701355 -0.100107744 0.1493351 -0.2789249
000100 41 fb 5c 3e c0 c5 52 bd be d6 8a bd 00 e6 8d 3d
       0.21580221 -0.05145812 -0.0677924 0.06928635
000110 e8 5b 26 be 74 be 09 be d8 55 97 3d 75 37 89 bc
       -0.16245997 -0.13451558 0.0738942 -0.016750077
000120 b3 06 5c bd d5 07 21 bc 16 a1 82 be 1f f6 36 bd
       -0.053717326 -0.009828527 -0.25513524 -0.044668313
000130 b8 cb 4c 3d 6c 5f f8 bc a8 ad 13 3d f3 de ac be
       0.04999897 -0.030318938 0.036054283 -0.33763847
000140 14 79 c3 bd f3 2a 16 3e 4c 7e e5 3d bb 47 5e be
       -0.09544578 0.14664821 0.1120573 -0.2170705
000150 e1 b7 f6 3d b8 bd 87 be aa 57 f9 3d 65 e6 b6 bd
       0.12046791 -0.2651193 0.12174924 -0.08930663
000160 86 ca 49 be 9b 8d 02 3e bc 30 87 3c 20 b2 af 3e
       -0.19706163 0.1274933 0.01650273 0.34315586
000170 95 fc 69 3e 69 67 2a be 5a 18 45 be cb 5e 8e 3c
       0.22850259 -0.1664101 -0.1924757 0.017379185
000180 3b 78 a5 3c 2e f0 8c 3e 7e 9e 7c be b0 8c 5a 3e
       0.020198932 0.27526993 -0.24669835 0.2134273
000190 fc 01 16 3d 89 39 35 bd d2 8c 90 3e 1f 7c 29 3e
       0.036622986 -0.044244323 0.28232437 0.16551255
0001a0 01 f6 23 3d 9a 80 82 bc c1 4c 77 be de 00 f3 3d
       0.04002953 -0.015930463 -0.24150373 0.118654
0001b0 cc 25 35 3e 35 aa 81 3e 65 40 6b bc 12 cc 26 3d
       0.176902 0.2532517 -0.014358615 0.04072196
0001c0 85 43 a4 bd 53 c8 c9 bc f7 dc bd 3d 81 67 b9 bc
       -0.08020691 -0.024631655 0.09270661 -0.022632362
0001d0 39 5d 44 be f3 4c 38 be 57 52 9a 3d ed 0e 03 bf
       -0.19176187 -0.17998104 0.07535236 -0.5119465
0001e0 39 4a a2 3d 68 8f 90 bd 3c 4d c2 bd 05 5e 28 be
       0.07924313 -0.070586026 -0.094873875 -0.16442116
0001f0 9f bc 85 bc 82 6d 0f 3e 15 70 15 be 37 63 98 bd
       -0.016325293 0.14006618 -0.14593537 -0.07440799

structural_attn.structural_layer_0.att_r f4 [1, 16, 8]
000000 c2 fd b3 be e0 cc 06 bd 99 be 92 be de d8 1e 3e
       -0.3515454 -0.032910228 -0.2866104 0.15512416
000010 bc 07 7c bd 17 5b d0 bd 0d 6f 49 be d5 d6 bd bc
       -0.061530814 -0.10173624 -0.19671269 -0.023173729
000020 a9 12 55 be e6 bf b4 bd 24 53 ad be 67 62 83 bd
       -0.208079 -0.08825664 -0.33852494 -0.06415253
000030 7a f8 57 3e 14 4a 38 3e 6f 44 9c bd a1 8e 65 3e
       0.2109088 0.17997009 -0.0763024 0.2241769
000040 f2 cf 55 be 7c 4b 66 be ac 4d 02 bf e4 c1 e5 3d
       -0.20880106 -0.22489733 -0.5089977 0.11218622
000050 fd 7d 52 be ed 11 e5 bd be 04 9a be ee d6 46 3e
       -0.20555873 -0.1118506 -0.30081743 0.19417927
000060 a8 7c a1 bb 43 3a c5 bd 5c 32 63 bd 98 05 f3 bd
       -0.0049281903 -0.09630253 -0.05546795 -0.11866301
000070 f0 c9 80 be d7 7e c3 3e ca da 98 bd 13 79 7e be
       -0.25154066 0.3818271 -0.07463606 -0.24850874
000080 8f c0 29 3d 3b 6d 4d 3e d9 52 53 3e 30 54 e0 3d
       0.041443404 0.200612 0.20637073 0.109535575
000090 22 c7 8e be 3a 62 af bd 58 dd 6e 3e 3e 9a 1a be
       -0.278863 -0.08563657 0.23326623 -0.15097901
0000a0 21 33 ca be 1e 96 07 be c1 a2 90 3d 87 be 49 3e
       -0.39492133 -0.13240859 0.07062293 0.19701587
0000b0 22 d8 3a be 21 da 7b 3e c0 ee 6d 3e 50 28 1f 3e
       -0.1824651 0.24594928 0.23235607 0.15542722
0000c0 06 aa 91 be d4 7e 62 bd e4 14 08 be 10 1b 91 3e
       -0.2845003 -0.055296734 -0.13289219 0.2834096
0000d0 07 e1 a1 bd c3 35 18 be ae 84 9a 3c f9 db a5 bd
       -0.07904249 -0.14864258 0.018862095 -0.08098597
0000e0 2a aa e7 3e b6 90 9d bb cf 46 5f be 4c a3 75 3e
       0.45247012 -0.0048085107 -0.21804355 0.23988074
0000f0 13 43 6c be 13 a7 b0 3e 6a 42 09 3e 4a 3a 80 bd
       -0.23072462 0.34502468 0.13404241 -0.06261118
000100 fc a2 11 bc 4f 34 e0 bc f0 8a 1b bd 61 62 03 bd
       -0.008888956 -0.027368693 -0.037974298 -0.032076243
000110 ac d9 76 be 80 d8 2c be 15 96 49 be ef 4e 83 3e
       -0.24106473 -0.16879463 -0.19686158 0.2564616
000120 d5 70 65 3d da 4b a1 3c ab f2 0b 3d 64 7b 78 be
       0.056015808 0.01968949 0.034166973 -0.2426582
000130 52 b3 d5 3d 46 0c 60 3e 58 f3 63 3e a7 1f e4 3e
       0.10434593 0.21879682 0.22260797 0.445554
000140 33 96 00 3e d0 70 91 3d 57 a1 2a be 3e 0b d3 bd
       0.12557296 0.071015954 -0.16663109 -0.10304879
000150 78 01 55 3d 4e 5e 3f bc 1a 2b 82 bc 96 12 af be
       0.052003354 -0.011680199 -0.015889693 -0.34193867
000160 f3 be 0e 3e fa b8 38 be 39 9e 8a be a1 b5 c0 be
       0.13940029 -0.18039313 -0.2707384 -0.37638572
000170 90 c8 13 be 56 2c f7 3d b7 78 f0 3c 9c af 2e 3e
       -0.14431977 0.12069003 0.029354436 0.17059177
000180 6c da 4e 3e 3a d5 7e be 84 d7 58 be 6e 2e 62 bd
       0.20200509 -0.24886027 -0.21175963 -0.05522006
000190 4f af 47 3d 39 fe 21 3e 10 f1 4f be 5d 24 98 bd
       0.04875117 0.15819634 -0.20306802 -0.07428811
0001a0 49 4d 5a 3e ce 56 4e 3e 27 49 95 3d 7e c0 3a be
       0.21318544 0.20150301 0.07289343 -0.18237492
0001b0 a4 dc 55 be 22 d1 2a bd 29 05 39 3d 2d ff a6 bd
       -0.20884949 -0.04170335 0.045170937 -0.0815414
0001c0 2c ac b3 3d b4 14 ca 3c 69 a5 33 be 2d 1f 06 be
       0.087730736 0.024668075 -0.17543568 -0.1309783
0001d0 a5 1f 31 3e 8e a3 67 be fe b8 44 3e b9 fd 9c 3e
       0.17297228 -0.22620985 0.19211194 0.30662325
0001e0 34 b2 85 3e 42 28 7f bd 08 e8 ff bd de 54 e5 3a
       0.2611252 -0.062294252 -0.12495428 0.0017496606
0001f0 db 81 1a be f1 8e d7 3e 83 16 b5 3e a7 c8 83 be
       -0.15088598 0.42101243 0.35368738 -0.25739023

structural_attn.structural_layer_0.lin.weight f4 [128, 143]
000000 02 8f 8b 3b 03 4a 15 3c e9 7e 1f 3e 0b 83 7b 3d
       0.004258991 0.009111884 0.15575756 0.06140427
000010 e9 ed da 3d 45 76 03 3c 73 51 c5 3c 76 70 96 3d
       0.10689909 0.008023803 0.02408669 0.07345669
000020 db f1 8a 3d ed 2c 88 3d 80 46 19 bd f9 31 18 bd
       0.067844115 0.06649194 -0.03742075 -0.037157033
000030 2f d0 88 3c 1f 83 a1 bd 23 12 8f bd 10 7c 13 bd
       0.016700832 -0.078863375 -0.06985881 -0.036006987
000040 02 1d a7 3d 95 f6 b4 bd 94 10 3c bc 8a ac 90 bd
       0.0815983 -0.08836094 -0.011478562 -0.07064159
000050 98 b2 a9 3d 96 8d de bd e3 70 08 3d dc ac 3a bc
       0.08286017 -0.10866849 0.033310782 -0.011393752
000060 7b b2 07 bc 92 52 e4 3d 0d c1 9e 3c 59 24 97 bc
       -0.008282299 0.111485615 0.019379163 -0.01844995
000070 09 34 41 3e a9 4e 4e 3e d6 70 85 bd af a5 90 3b
       0.18867506 0.20147194 -0.06515662 0.0044142823
000080 01 d1 c0 3d 3f c1 42 3c 2e 46 af bd cf 6c 58 3d
       0.09414864 0.011886894 -0.085583076 0.052838143
000090 c9 06 3b bd 7d b0 02 bd 8f e1 8e bd 04 bf 8d 3d
       -0.045660768 -0.031906594 -0.06976616 0.06921199
0000a0 82 76 26 3d 4b 83 71 3d 43 a4 35 3d 66 95 7e bb
       0.04064036 0.0589631 0.044346105 -0.0038846373
0000b0 2a 7e 10 3e c3 48 2f 3d bb 2c 9c 3c 2b a7 5d 3d
       0.14110628 0.042794 0.019064298 0.054114502
0000c0 4e 60 32 3d 1a 56 94 3c 7e 59 96 bc 58 c4 97 3b
       0.043548875 0.018107463 -0.01835322 0.0046315603
0000d0 cc 27 8a 3d 31 77 a5 3d a5 fb 0a bd 69 be f3 3d
       0.06745872 0.080793746 -0.033931393 0.11901552
0000e0 b2 8a 96 3c e4 33 a0 bd 48 76 18 be de 0c d4 3d
       0.018376682 -0.07822397 -0.1488887 0.10354017
0000f0 82 a4 3f bd 90 e9 00 3d 7e a9 30 be 9c f3 c9 3d
       -0.046787746 0.031472743 -0.17252156 0.09860918
000100 8e 0e ef bd 6f ad 8e bc 0d df ac 3c 8b 6f be 3d
       -0.11672698 -0.017416684 0.021102453 0.09298619
000110 f4 f2 4f be 91 8e 8c bd b2 28 ee bd 05 b6 c9 3c
       -0.20307523 -0.0686313 -0.11628856 0.024622926
000120 a6 a6 f4 3d be d5 8b 3d 86 75 e6 3d 2c 98 b6 3d
       0.11945848 0.068278775 0.112528846 0.08915743
000130 f8 a2 95 3c d1 a6 25 3d 07 03 37 3d 87 3c 9c 3c
       0.018266186 0.04044229 0.04468062 0.01907183
000140 0e 31 e2 3b 06 7f 51 3d 6b ba bb 3d 47 f4 25 3e
       0.0069028204 0.05114653 0.09166416 0.16206466
000150 f1 4e d9 3d c1 f9 ed 3d d9 c4 5a 3e ad f1 34 bc
       0.1061076 0.116199024 0.21364154 -0.011043948
000160 e0 fc b8 3d 9b b1 ab bc bf 12 b5 3c 0e d6 f7 3d
       0.09032607 -0.020958712 0.022103665 0.121013746
000170 48 87 2f 3e f3 8a 5b 3e 97 0b ef bc 1e 68 32 3e
       0.1714145 0.21439724 -0.029180331 0.1742253
000180 23 75 4e 3c 3c 2c 05 3e a0 b7 46 3e 4d 6e 2a 3d
       0.01260117 0.13005155 0.19405985 0.041609097
000190 db 2f 37 3e 4e d4 d6 3c c9 c5 31 3e 3f 9c 65 bd
       0.17889349 0.026224282 0.17360605 -0.05605721
0001a0 78 f8 ea bd 1e 2a 80 3d 6c 96 11 3e c9 cb 2b bd
       -0.11473173 0.06258033 0.14217538 -0.04194239
0001b0 b9 79 db 3d 88 b1 91 3d 2a 04 aa 3d 50 27 81 3c
       0.10716576 0.071139395 0.083015755 0.015765816
0001c0 ef 01 bd bd 05 4e 90 bd 63 dc c0 bc a0 33 68 3e
       -0.092288844 -0.07046131 -0.023542589 0.22675943
0001d0 47 58 22 bc f1 24 fa 3d df df 6c 3d 8d 27 28 3e
       -0.009908742 0.12214077 0.057830688 0.16421337
0001e0 38 36 41 3e 15 8f e7 3d bf b2 ea 3c 9e 20 26 bd
       0.18868339 0.113065876 0.028649686 -0.04055845
0001f0 fb 15 35 bb 95 9c 8f bb 29 89 6b 3e 10 cb 07 3e
       -0.002763151 -0.0043826797 0.23001541 0.13261056
000200 94 01 1c bd 6f 1b 37 3e d4 ab 9f 3d 45 ae 1a 3e
       -0.038087443 0.17881559 0.077964455 0.15105541
000210 56 6b 56 3e 45 f8 41 3e 58 29 e5 3c 8c f5 ff 3d
       0.20939383 0.18942364 0.027973816 0.12498006
000220 2f f9 9e bd ae ff 6e bd 58 07 14 3e 76 12 23 bd
       -0.07762372 -0.058349304 0.14455926 -0.039812528
000230 4d a4 84 3c 2b fc 21 bd b0 c7 b3 bc e0 6d c7 3d
       0.016191626 -0.039547127 -0.021945804 0.09737754
000240 cf 34 c0 bc 11 12 c1 bc 45 7b 46 bd 5d 82 3a 3d
       -0.023462681 -0.023568185 -0.048457403 0.04553448
000250 a1 d6 e8 bb 2b 32 db 3d 27 62 83 3d 04 5e 0f 3e
       -0.007105664 0.10702928 0.064152054 0.14000708
000260 fd 89 a4 3d 79 82 45 bd 67 23 1a bb a3 f0 8b 3d
       0.08034132 -0.04822013 -0.0023519637 0.06833007
000270 98 1f 12 3e f2 cb 06 3e 09 9e 7a bd 4d d7 2e bc
       0.14269865 0.13163736 -0.06118587 -0.010671449
000280 65 37 cd bd a7 3f 90 3c b2 37 aa bd 7b 05 1a 3d
       -0.10020331 0.017608477 -0.08311404 0.037602883
000290 7e fa 31 be cb 14 b6 bd cb 62 2d 3e a0 b9 34 be
       -0.17380711 -0.08890685 0.16932218 -0.17648935
0002a0 28 41 05 be 05 49 cf 3c 55 bb 5d bd 2b 5d b6 bd
       -0.13013136 0.025303373 -0.054133732 -0.08904489
0002b0 38 da d6 bd f8 dc 10 3e 83 50 fa 3c ce 00 e4 3d
       -0.10490841 0.14146793 0.03055597 0.11132966
0002c0 f9 6d 42 3d b8 b8 e8 bc e8 ff b4 3c f8 ec d8 3b
       0.04746816 -0.028408393 0.022094682 0.0066200458
0002d0 60 01 e7 bd 39 bc 0a bd 83 8b 4c 3d ae 74 e3 3d
       -0.11279559 -0.03387091 0.049937736 0.11106239
0002e0 99 fe 52 bd 74 22 84 bd f8 eb f7 bc bc 15 0d bc
       -0.051512334 -0.06451884 -0.030263886 -0.008611139
0002f0 58 04 3b 3d 0a 62 59 3d c6 a3 54 be 24 bf 1c bd
       0.04565844 0.053072013 -0.207656 -0.038268223
000300 18 43 31 3e 80 42 ac 3d 7d 9e 09 be 9b f6 c1 3d
       0.1731075 0.08411121 -0.13439365 0.094708644
000310 5a 0a 4a bd e1 30 13 be 74 e6 24 bd 38 27 86 3d
       -0.04932628 -0.14374115 -0.04025884 0.06550449
000320 1d d2 e0 3d a8 c5 0f be bc 6c b7 3d 90 ab 71 bd
       0.10977576 -0.14040244 0.08956286 -0.059001505
000330 c6 8c 86 3d ed 73 18 be d3 8e c1 3d b7 6d 1b bd
       0.06569819 -0.14887972 0.0945107 -0.03794643
000340 f5 53 93 be c6 7d 4a 3e bf 25 8b 3c 80 ad 70 bc
       -0.28774992 0.19774541 0.016985772 -0.014689803
000350 bd 61 e4 bd eb a1 05 be a7 98 aa 3c 44 fd 77 3e
       -0.111514546 -0.13050048 0.020824743 0.24217707
000360 58 5d 21 3e 3c db 40 be 1c d0 55 be 3d 65 bc 3d
       0.15758264 -0.18833631 -0.20880169 0.09198997
000370 0e 0a 15 3d 08 43 4f 3e 30 b7 1d 3d ba 9e 22 3e
       0.036386542 0.20240414 0.03850478 0.15880862
000380 18 e5 27 3e 79 d8 88 bc 6f a4 0a 3c f4 88 a4 3c
       0.16395986 -0.016704785 0.008462056 0.020084836
000390 66 66 64 3e 0f ca 86 bd de ec d1 bd 4b f9 33 3d
       0.22304687 -0.06581508 -0.10250257 0.043938916
0003a0 5f a5 97 bd 14 2d b7 3d 6d e5 e1 3d 2a 3f df bd
       -0.07404589 0.08944145 0.110300876 -0.109007195
0003b0 9e 27 0e bd f1 f2 0e be a2 c4 b4 3c 40 82 bf bc
       -0.03470575 -0.13959862 0.022066418 -0.023377538
0003c0 24 03 a0 3d 68 2d 9e bd 6d 30 77 bd f5 a0 44 bd
       0.07813099 -0.07723504 -0.060348917 -0.048005063
0003d0 cf 6f 13 3e 97 18 3b bc ec 17 44 3e 56 4d 07 be
       0.1439812 -0.011419437 0.1914975 -0.13213095
0003e0 2a 9f 1a be 73 13 0b be 18 e2 b1 bd c1 d2 aa 3c
       -0.15099779 -0.13581638 -0.08685702 0.020852448
0003f0 ac 09 6d be 6d 41 10 be fb d5 23 bd 88 c6 04 bd
       -0.23148221 -0.14087458 -0.03999899 -0.032415897

structural_attn.structural_layer_0.lin_residual.weight f4 [128, 143]
000000 01 b1 27 3c 15 5e 8e 3c 89 dc f8 3c c4 e2 2d bd
       0.010235072 0.017378846 0.030378597 -0.04245259
000010 4c 01 4d 3d 2c 85 38 3b dd c9 6a 3c ab d0 e5 3c
       0.050050065 0.0028155548 0.0143303545 0.028053602
000020 c2 8d c1 3c 43 61 0b bd f1 06 11 3b 99 26 da 3c
       0.023627166 -0.034028303 0.0022129382 0.026629733
000030 c1 15 d4 3c 02 43 0c 3d e8 e9 37 bd 8d fe 73 3d
       0.02588928 0.03424359 -0.044900805 0.05956893
000040 c9 d6 31 bd 51 8c 0a 3d 3b ff 02 ba 47 f3 64 bd
       -0.043417726 0.033825222 -0.0004997139 -0.05589607
000050 40 f2 43 3d b5 1b db bd 72 e1 a0 3c c3 cf c8 bc
       0.04783845 -0.10698644 0.01963875 -0.024513131
000060 b0 27 a6 3d 4b c9 ac 3d e2 c7 a0 3d c3 bf 99 3d
       0.081130385 0.08436831 0.078506246 0.07507279
000070 d1 46 3b 3e c4 3c f4 3d 7e 52 02 3c 27 89 13 3d
       0.18288733 0.119256526 0.007954238 0.03601947
000080 00 32 7e 3d 69 ff 57 3b ae 54 88 bd b6 83 82 ba
       0.062059402 0.0032958633 -0.06656776 -0.0009957466
000090 e9 86 82 bd 27 dd 07 be a2 cc 88 3d a0 0b da 3c
       -0.06373388 -0.13267957 0.066796556 0.026616871
0000a0 56 77 07 3d dc 8f 04 3e ef c0 8c 3c ca 75 6f 3c
       0.033072792 0.12945503 0.017181842 0.014615485
0000b0 89 58 ef 3d 2c cb 26 bc c2 d2 99 bb 17 2d 10 bd
       0.116868086 -0.010180276 -0.0046943137 -0.03519925
0000c0 79 21 1a 3c 5d 0e 08 bd 9f c0 94 3d db 5f f3 bd
       0.009407395 -0.033216823 0.07263302 -0.11883517
0000d0 2b e6 39 3d 3a 35 93 bd d3 f2 05 3d 0d bb 4f 3c
       0.04538552 -0.071878865 0.03270228 0.012678874
0000e0 77 49 08 3d 22 48 24 bc 25 eb 82 bd 6a c1 dc 3d
       0.033273187 -0.010026963 -0.063925065 0.10779078
0000f0 a0 44 74 3d 77 45 30 bc 3d 0f cd bd 29 06 30 3d
       0.05963576 -0.010758749 -0.10012672 0.042974625
000100 90 de 30 bd 6a bc aa 3c 37 70 8e bd ce 3b 3a 3d
       -0.043181002 0.020841796 -0.06954997 0.04546719
000110 11 14 3c be 94 d8 e5 bd 85 d7 81 bc de 37 be 3d
       -0.1836703 -0.112229496 -0.015849838 0.092879996
000120 4c d6 5e 3d 0d 23 9b 3d 28 38 a3 3d 1e 61 0a 3e
       0.05440359 0.07575045 0.07969695 0.1351361
000130 0e 29 97 3d 03 39 03 3d 44 6a 4c 3d 66 eb 80 3d
       0.073808774 0.032036792 0.04990603 0.06294899
000140 1c 97 e4 3c ac f8 d1 3d 42 04 02 3e c8 80 ed 3d
       0.027904086 0.102525085 0.12696937 0.11596829
000150 6e 80 2c 3e e1 48 0c 3e 0b 0d 7d 3e 51 92 a6 3d
       0.16845867 0.13699676 0.24712007 0.081333764
000160 70 de c3 3d ed 04 98 bc d6 e4 01 bd 04 53 cc 3d
       0.09563911 -0.018557036 -0.031712376 0.099767715
000170 12 f8 21 3e f0 d0 07 3e a8 e9 d1 3d a1 df 92 3d
       0.15817288 0.13263297 0.102496445 0.0717156
000180 cd 80 82 3d bd 79 8b 3d 79 57 0a 3e c1 63 70 bd
       0.06372223 0.06810329 0.1350993 -0.058688883
000190 8f 56 33 3e 5e e7 ad 3d 97 e0 25 3e 53 b9 78 3b
       0.17513488 0.084913954 0.16198955 0.0037952259
0001a0 84 fe b2 bd 62 8e 5f bd 23 eb 6f 3e f6 e0 28 3e
       -0.08739951 -0.054579146 0.23429541 0.16492066
0001b0 22 3a 75 3c 41 0d 42 bd d0 ab 10 3e 0d 87 01 bd
       0.014967473 -0.04737592 0.14128041 -0.031622935
0001c0 99 a0 39 be 59 db 9b bb 4f 8b 27 3b 88 ff 0b 3e
       -0.1812767 -0.004756373 0.0025565212 0.13671696
0001d0 68 48 b1 3d 3a 6d 9a 3d 12 91 1d 3e a3 5c 68 3e
       0.086563885 0.075403646 0.15387371 0.22691588
0001e0 00 38 2a 3e 56 7f da 3c 77 b9 1f 3e d8 c6 ff 3d
       0.16622925 0.026672047 0.15598093 0.12489098
0001f0 43 6e 67 bc 94 e3 d7 3b 07 1e fa 3d 33 c0 f6 3b
       -0.01412541 0.0065884087 0.122127585 0.007530236
000200 23 e7 8c 3d c5 05 09 3e 9d a5 9a 3c 28 04 ab 3d
       0.06880023 0.13381107 0.018877799 0.08350402
000210 00 af c7 3d 79 ce 06 3e f1 e2 64 3e 92 76 6a 3c
       0.097501755 0.131647 0.22352196 0.014310496
000220 87 d0 3d bd 4a aa 4b bc 35 a9 80 bb 35 8f f2 3d
       -0.046341445 -0.012430737 -0.003926421 0.11843721
000230 f2 b9 e5 3d 33 e3 3f bd e9 90 87 bc 5b 7a 40 bc
       0.11217107 -0.046847533 -0.01654859 -0.011747922
000240 6d ac f8 bb c4 2e 04 bd 79 d5 34 3d c0 6d cc 3c
       -0.007588914 -0.03227116 0.044148896 0.024954677
000250 61 52 f7 bc 7a 8d 0b 3d 31 52 5c bc 95 76 6b 3d
       -0.030190649 0.03407047 -0.01344733 0.057486136
000260 b2 78 b2 3d 06 8c 84 3d f0 d7 33 bd 3d 0b e6 bd
       0.08714427 0.0647202 -0.043907106 -0.11232612
000270 47 12 5e 3d 6b d6 29 bc 47 16 a8 bb 62 0b 31 3c
       0.05421665 -0.010366063 -0.005129609 0.0108059365
000280 95 b2 71 bd 3b ad a7 3d 08 00 71 bc ba 71 25 bd
       -0.0590082 0.08187338 -0.01470948 -0.04039166
000290 54 d0 8b be 1a 43 55 b8 c6 5f ad 3d 06 ec 0d be
       -0.2730738 -5.084565e-05 0.08465533 -0.13859567
0002a0 da 88 b1 bd a5 b2 03 3d cb 6d fe 3d 51 32 db bd
       -0.086686805 0.03215279 0.12423285 -0.107029565
0002b0 6f 98 20 bd 4b 79 0c 3c 73 01 1f 3e cc 81 4e 3d
       -0.039207872 0.00857384 0.15527897 0.050416753
0002c0 0b 23 3e bb 26 de 38 bd be b8 1f bd ce e3 9d 3d
       -0.0029012586 -0.045133732 -0.038994543 0.07709466
0002d0 d2 5b 92 bc 91 ec fc 3d 8e 2b b2 3d 44 47 0f bd
       -0.017866049 0.12349809 0.08699714 -0.034980074
0002e0 d7 b5 39 be da c7 a6 bd 15 ba be 3c b5 cb f1 bc
       -0.18135773 -0.081435874 0.02328209 -0.02951608
0002f0 61 c6 67 3d 09 05 10 3e 04 e7 93 bd fc 14 a4 3d
       0.056585673 0.14064421 -0.07221797 0.08011815
000300 5e b1 1a 3d e0 21 f3 3d 06 29 45 be 63 4a f7 3a
       0.037766807 0.118716955 -0.1925393 0.0018866773
000310 76 98 8b 3c c0 cc 11 3e 65 99 37 3c 1c 1f 89 bb
       0.017040472 0.14238262 0.011206006 -0.0041846167
000320 53 0d 06 3e 28 36 85 bd ea 13 13 bc 15 7f 79 3c
       0.1309102 -0.0650447 -0.008976916 0.015228053
000330 fc 80 87 3d 27 af e4 bd fa 50 9a 3c 51 6b af bc
       0.06616399 -0.1116622 0.01883744 -0.021413477
000340 e4 97 6d be 6b 09 34 3e 6b 10 41 3c a3 72 70 3c
       -0.23202473 0.17581718 0.0117836995 0.014675769
000350 81 e4 a1 3d 43 88 18 be 9f 3b 92 3d fa 92 4d 3e
       0.07904912 -0.1489573 0.07140278 0.20075598
000360 16 c2 1f 3e ab 92 60 be e1 60 b2 bc 1d 0d 22 3d
       0.15601382 -0.2193095 -0.021774711 0.039563287
000370 bc 59 50 3d a4 2a 2c 3e a5 e0 06 3e bd 27 0e 3e
       0.050866827 0.16813141 0.13171633 0.13882346
000380 8b 60 d1 3d ee 1b 10 3d 63 62 21 be 51 04 2d bb
       0.10223492 0.035182886 -0.15760188 -0.0026400278
000390 d5 79 25 3e 47 87 0a be 9c 4f 01 be 7e 54 25 bb
       0.16159756 -0.13528167 -0.12628025 -0.0025227363
0003a0 e7 0b e9 39 3e ab 92 3e e7 2f 53 3e 9e 5b c7 bd
       0.0004445009 0.28646272 0.20623742 -0.097342715
0003b0 0b f7 9e bd 24 fa 96 bb 46 01 a5 3d 3c 17 81 3d
       -0.077619635 -0.004607456 0.080568835 0.0630326
0003c0 9f 66 ba 3d d1 73 59 bd 9e b7 1d 3e 3f 78 d3 bd
       0.09101605 -0.053088967 0.15402076 -0.103256695
0003d0 31 ab 0f 3e 5c 25 55 bd f7 02 a6 3d 20 f6 db bd
       0.14030148 -0.05203758 0.08106034 -0.10740304
0003e0 f7 1e d1 bd 19 26 e2 bd ca 3d 5b be 8d 26 cd bc
       -0.10210984 -0.11042423 -0.2141029 -0.025042797
0003f0 f0 56 6c be 96 f0 40 be ce 03 9b 3d 49 ba 47 be
       -0.23080039 -0.18841776 0.07569085 -0.19504656

temporal_attn.temporal_layer_0.position_embeddings f4 [16, 128]
000000 a4 43 02 bd c6 21 4e bd 10 3c a1 bd 2c 12 b1 3c
       -0.03180279 -0.050325178 -0.07872784 0.02161511
000010 db 2d 63 bd d5 43 95 bb 07 e7 7c 3d 51 e3 d2 bd
       -0.055463653 -0.0045552053 0.061743762 -0.102972634
000020 b2 f6 8a bc 62 c8 bf 3c bf 9e 2c 3c fe fe 3d bc
       -0.016963337 0.02341098 0.010535895 -0.011596439
000030 a0 1d 1d bb 2b 8f 8b 38 10 b0 ed bd 10 3d 9c 3c
       -0.0023973957 6.6547036e-05 -0.11605847 0.019072086
000040 7f c2 0e 3d 4c 98 a5 bc 40 7e 71 bd be 2e 8d 3d
       0.034853455 -0.020214222 -0.058958292 0.06893681
000050 12 2c d1 3c 43 11 9e bd 25 44 03 3d 1e 7a 83 bd
       0.02553371 -0.07718136 0.03204741 -0.064197764
000060 4e 22 0e bc 0d 85 5d 3d 03 15 ca 3d 5d fa d3 bd
       -0.008675171 0.054081965 0.09867289 -0.103504874
000070 9d 29 ec 3c 46 42 b1 bd 17 bb 5a 3c b8 a3 bf bb
       0.028828437 -0.08655219 0.01335027 -0.005848374
000080 1a 3c 07 3b b4 f3 8d bd 98 af 0d bc e9 1e 26 bc
       0.0020635189 -0.06931248 -0.008647822 -0.0101392055
000090 b0 2f fb bc 5e 52 ee bd e2 40 09 3d ab d4 9b 3d
       -0.030662388 -0.11636804 0.033509143 0.076089226
0000a0 73 5d f3 3c 18 e0 8f 3d f1 8f ae 3d 44 3f a6 bd
       0.029707646 0.07025164 0.085235484 -0.08117536
0000b0 66 b4 60 3d 24 ec 12 bd b7 20 05 3c 00 b0 aa 3c
       0.05485954 -0.035869732 0.008125476 0.020835876
0000c0 49 84 89 3c 38 9d a9 3b d0 1a fe bb 6e 6c 05 bb
       0.016786711 0.0051762126 -0.007754661 -0.0020358819
0000d0 6d 5d 06 bd 05 62 29 3d 5d cf 48 3c 9d 4a 1f 3c
       -0.03280394 0.041353244 0.0122564705 0.009722379
0000e0 1b 0c f2 bb 65 98 93 bd 5c 6c 82 3d 8f 6a cc bd
       -0.007386697 -0.07206801 0.06368324 -0.09981262
0000f0 02 71 57 3d ad f4 28 bd b8 23 cc bd db 4d cd 3d
       0.052598007 -0.041248966 -0.0996775 0.100246154
000100 a8 7c ef bc 29 6b b2 bc 67 9e e4 bd ce 7c 8d bd
       -0.029234245 -0.021779614 -0.11163025 -0.0690857
000110 ca a9 c2 bd c1 6e 02 bd ab 06 26 bd 3a 8d e2 bd
       -0.09505041 -0.031843904 -0.040533703 -0.11062093
000120 1c c0 dd 3b 41 4f 5b bd fe c5 82 bd 28 2b 44 3d
       0.006767286 -0.05354238 -0.0638542 0.04789272
000130 fc 65 8a 3d 8f 27 1e bd 20 96 5c bc 99 62 23 3d
       0.06757733 -0.038611945 -0.013463527 0.039888952
000140 f3 49 b2 3c 98 aa 8b 3d 13 6b 94 3c 32 7c 6b bd
       0.021763777 0.068196476 0.018117463 -0.05749149
000150 d3 9f 2f 3d b6 8a 87 3d c5 f0 2c 3b 99 51 ab 3a
       0.04287703 0.06618254 0.0026388627 0.0013070583
000160 80 e1 0a 3d 1d 1b 88 bd b8 81 86 bc d6 7a 1d 3d
       0.03390646 -0.066457964 -0.016419277 0.038447224
000170 41 af 64 3c ad 07 f4 bc bb 17 f3 b9 87 81 f0 3c
       0.013957799 -0.029788816 -0.00046366252 0.029358638
000180 8a c2 92 bd 1a 20 af 3c c4 d8 29 bc 39 b3 fe 3c
       -0.07166012 0.021377612 -0.010366622 0.03109132
000190 8d f7 66 bd 2c 19 83 3c ad 34 86 bd 10 4c ff bc
       -0.056388427 0.016003214 -0.06553016 -0.0311642
0001a0 81 53 e2 3d 18 d8 82 bd 04 75 95 bb c0 a2 8c 3d
       0.11051083 -0.06388873 -0.0045610685 0.068669796
0001b0 62 f3 57 3d 74 f4 6b 3d c1 4f bd 3d bb 24 c9 bc
       0.052722342 0.057606176 0.092437275 -0.024553647
0001c0 90 5a dd bd 48 74 24 bd cd f0 5b 3c 1c 36 d6 ba
       -0.10808289 -0.040149957 0.013424111 -0.001634303
0001d0 8e 94 d7 bd 75 e5 9c 3d e1 63 6f bd 0c ba 01 be
       -0.105263814 0.07660953 -0.05844486 -0.12668628
0001e0 21 50 6b bb 71 8f 96 bd ca 42 9c bd c4 55 2a 3c
       -0.0035905915 -0.07351578 -0.076299265 0.010396425
0001f0 a4 7c 86 3d 06 b4 8f bd ae 10 e7 3d af c7 b9 3d
       0.06566742 -0.070167586 0.11282478 0.0907129
000200 42 a4 01 bd 79 fc c8 bb 28 be ba 3c 7c 54 64 3b
       -0.03165079 -0.0061336127 0.022795752 0.0034840396
000210 03 84 dd 3c bd 67 22 3c 69 ce 9e bd e5 23 39 bd
       0.027040487 0.009912428 -0.07754213 -0.045200247
000220 49 c0 da 3d 56 80 f7 3b 3a db eb bb 6a ce 5a bc
       0.10681207 0.0075531406 -0.0071977647 -0.013354877
000230 1c 57 5e 3c 2c e6 74 bd 08 06 83 bd 9e e6 b7 3c
       0.013570573 -0.05978982 -0.06397635 0.022448834
000240 fd 70 2e bc 0d fc cc bc 97 3d e5 b9 69 d0 2b 3d
       -0.010647056 -0.02502253 -0.00043724172 0.041946802
000250 66 2b eb ba 08 d1 bb bc e3 77 09 3d 22 8e 36 bd
       -0.0017942011 -0.022926822 0.0335616 -0.044569142
000260 3b dd 6d 3d c4 10 af 3c 03 7d d0 3d 11 b4 ac bd
       0.05807231 0.0213703 0.10180094 -0.084327824
000270 29 4a b4 3d 43 d8 88 3d a5 b9 5f 3b 05 50 fd bc
       0.088032074 0.06681874 0.0034137752 -0.030921945
000280 1e 27 be bc 38 f7 cb 3d 10 a9 25 3c 6f 66 ab bd
       -0.023212012 0.099592626 0.010111108 -0.08369147
000290 2a 5f 13 bd 26 e8 81 bd 89 1d 64 bc ff 79 24 3d
       -0.035979427 -0.06343107 -0.013923057 0.040155407
0002a0 05 d3 82 3c 32 31 f4 bc 04 8c 7b bc 12 23 50 3d
       0.015969763 -0.029808614 -0.015353207 0.050814696
0002b0 b3 dc 96 3c 78 0a 89 3d d4 5d 72 3d db 7a b1 3c
       0.018415784 0.0669145 0.059171513 0.021665027
0002c0 d0 43 46 bc 92 f0 e0 3c 55 d4 df 3c 36 04 59 3d
       -0.012101129 0.027458463 0.027322927 0.05298253
0002d0 8c 14 c7 39 b8 39 5b 3c ce bf 63 bc 83 2b 0b 3c
       0.00037971546 0.01338046 -0.01390071 0.008494261
0002e0 8d 6c 7b 3d b5 8f 61 bb 9a 8b b9 3d 77 80 12 3b
       0.06138282 -0.0034417931 0.0905983 0.0022354403
0002f0 1a 0e 26 3c b3 fb 0e 3d da 03 01 bd 22 db 7a 3d
       0.010135198 0.034908008 -0.031497814 0.061244138
000300 ea f0 f0 3b 5d 1a 03 be 24 83 34 bb a1 30 8e 3d
       0.007352938 -0.12803026 -0.0027543986 0.06942869
000310 96 1c e5 bd 8a e7 47 bd 8d b0 9e bd aa 86 34 3a
       -0.11187093 -0.048804797 -0.07748518 0.00068865216
000320 2a 45 51 bd a3 55 6f 3b 3b a6 09 bb 41 5d 88 bd
       -0.05109135 0.003651955 -0.0021003622 -0.06658412
000330 1c 29 8d bd e7 39 0e bb 0e d9 7c bd 97 f2 c9 3d
       -0.068926066 -0.0021701993 -0.061730437 0.098607235
000340 43 fb da 3c 79 6e 0d 3d c9 db ac 3d dc d4 40 bd
       0.026731139 0.034529183 0.08440358 -0.047078
000350 3d 55 e2 3c c0 f5 16 3d 11 a1 2f 3d 1a 31 3f 3c
       0.027628535 0.03685546 0.042878214 0.011669422
000360 0c 64 d7 3c d8 eb 97 bc 56 f3 82 bc 96 3f 88 bc
       0.026292823 -0.018545076 -0.015985172 -0.016631883
000370 cb 02 f0 3c 03 20 33 3d c7 63 a6 3d 90 39 9f 3c
       0.029298207 0.0437317 0.081245 0.019436628
000380 e5 3d 8a 3c 09 df ef 3c e6 50 8c 3c c1 59 d9 3c
       0.016875217 0.029281156 0.01712842 0.026532056
000390 4e 42 a1 bd 3f 50 65 3d cb 88 15 bd 42 d6 79 bd
       -0.07873975 0.05598473 -0.03650741 -0.060995348
0003a0 fb b7 d1 3d 07 51 63 3d bb eb 88 bb 19 07 18 3d
       0.102401696 0.055497196 -0.004178492 0.037116144
0003b0 8e 5a 7b 3b 85 78 5b 3d 55 b2 ae 3d b8 a1 f4 3c
       0.0038353535 0.053581733 0.08530108 0.02986227
0003c0 1c ae 6b bd d4 8a bf bc 85 9f a0 3c c6 67 af 3c
       -0.05753909 -0.023381628 0.019607315 0.021411788
0003d0 17 4b 7e 3d 68 f4 4a 3d b2 55 1d 3d e0 33 f2 bb
       0.06208333 0.04954949 0.038411804 -0.007391438
0003e0 47 af 78 bc 4c ce 79 bc 19 a6 4c bc f3 40 41 3c
       -0.015178508 -0.015246939 -0.012490773 0.01179527
0003f0 f9 2a 19 3d 60 0d ea bc 37 8e 7d 3d 65 e1 b3 bd
       0.037394498 -0.02857083 0.061903205 -0.08783225

temporal_attn.temporal_layer_0.Q_embedding_weights f4 [128, 128]
000000 ea 88 90 bd d4 e8 6d bc 12 19 0c be 17 86 2f 3e
       -0.07057364 -0.014520843 -0.13681439 0.17140995
000010 a9 bf 98 bc cc 96 42 3e 64 fe 8f 3e 53 85 ee bd
       -0.018646078 0.19002837 0.28123772 -0.11646523
000020 df 1f d1 bc 62 21 fb bc bc f7 6f 3e a2 74 7b be
       -0.025527893 -0.030655567 0.23434347 -0.2455621
000030 02 9b cf 3d 87 47 4d be d5 a2 96 bd bf 88 0a 3e
       0.10136987 -0.20046817 -0.073552765 0.13528727
000040 87 f6 02 3e 6f 48 94 bc 69 30 09 bd b8 46 93 3d
       0.12789355 -0.018100945 -0.033493433 0.07191223
000050 48 fe 8b bd d4 22 27 3d dc 18 60 be 46 35 66 be
       -0.0683561 0.0408047 -0.21884483 -0.2248126
000060 c8 a9 b9 bc 56 16 99 3c c1 d8 55 bd 6a bb 8a 3e
       -0.022663966 0.018687408 -0.052208666 0.2709611
000070 d0 ee 52 be 6a 75 d0 3c f5 5b e3 bd dd 37 87 3e
       -0.20598912 0.025446612 -0.11101524 0.26409808
000080 d2 35 7c be e6 a3 98 bc 7c 4d 1b 3e d0 ed 29 be
       -0.24629906 -0.01863284 0.15166277 -0.16594625
000090 d2 4b 07 3b bc f1 d4 3c f4 15 39 3e 11 7d 09 3d
       0.0020644558 0.025994174 0.1807478 0.03356654
0000a0 db b2 34 3e b7 4e 21 bc df 30 1b 3e 64 f1 4c be
       0.17646353 -0.009845427 0.15155362 -0.20013958
0000b0 a8 15 11 bd 43 b2 78 be 19 55 b9 bc 12 b5 5d 3e
       -0.035421044 -0.24286751 -0.022623586 0.21651104
0000c0 7c 64 3a 3d 66 01 29 3d 30 b1 01 be 09 04 54 3e
       0.045505986 0.0412611 -0.12665248 0.20704664
0000d0 41 b3 24 3d 8e 24 21 be 93 d5 bf 3d ef 0a 6b 3c
       0.040210012 -0.15736601 0.09366908 0.0143458685
0000e0 9d 3a b7 be c8 6d 5c be 7c 37 51 be 55 78 41 be
       -0.35786906 -0.21526253 -0.20431322 -0.1889356
0000f0 b1 97 a6 3e 92 a8 69 3d 8f fe 72 be 33 7a 9a 3c
       0.32537606 0.057045527 -0.23729919 0.018857097
000100 f7 86 9d bd a2 51 8f 3d af 50 81 bd 21 62 55 3e
       -0.07691758 0.06997992 -0.06314217 0.20838214
000110 66 c4 83 bd bd 36 d6 bd 86 69 1f bb 69 7c db bd
       -0.064339444 -0.10459659 -0.0024324371 -0.10717089
000120 02 af 2a 3d cb a3 c6 bc 24 e5 6a 3e a3 79 6f 3d
       0.041670807 -0.024248024 0.22938973 0.05846561
000130 0e 64 45 3e 20 be 9e be 96 77 f2 3d cc 46 4d 3e
       0.19276449 -0.3100443 0.118392155 0.20046538
000140 35 87 62 bd 7d ed 79 be 4d 6d 03 3c 4c 26 d4 bc
       -0.055304725 -0.24407001 0.008021665 -0.025897168
000150 91 ba 01 bd 26 b0 a3 3d c3 93 e2 bd f1 0c 39 bd
       -0.031672064 0.07992582 -0.110633396 -0.045178358
000160 c3 f1 1d 3e 3b d1 aa bc 24 68 aa 3d 6f 25 72 3e
       0.15424256 -0.020851722 0.083206445 0.23647092
000170 7b ee 13 be 12 71 18 bd 73 eb 56 be 29 1a 80 be
       -0.14446442 -0.037217207 -0.20988254 -0.2501996
000180 a6 36 5c bc 92 6b 8d 3c f7 72 5b be 6c 48 3c 3e
       -0.013440764 0.017263208 -0.21430574 0.18387002
000190 bc 7e c0 3e 7e 5f 64 be 46 79 34 3d 19 88 bc bd
       0.3759669 -0.22302052 0.044060968 -0.09205646
0001a0 d4 2c 53 be 8b 3e 8d be 6c d8 6c be 59 07 88 be
       -0.2062257 -0.2758678 -0.23129433 -0.26568106
0001b0 0b 24 df bd 45 98 33 3d fe e9 24 3d 15 df fa 3c
       -0.108955465 0.043846387 0.040262215 0.030623952
0001c0 10 db a4 3d dc 25 de 3d a9 a3 c6 bd a3 db f9 bc
       0.08049595 0.10847065 -0.096991844 -0.030500239
0001d0 ab 8c 0c be 53 fb 27 bd 49 6b d8 bd 0b fc e8 bd
       -0.13725536 -0.041011166 -0.10567338 -0.113761984
0001e0 4f 08 9c 3c d8 35 34 3c f3 9f 69 3e 27 49 a2 3d
       0.01904693 0.0109991655 0.22814922 0.07924109
0001f0 29 37 b9 bc 05 dd 13 be 38 9e 5a 3d 3f f3 6e 3e
       -0.02260931 -0.14439781 0.053373545 0.23334979
000200 f6 b5 fe 3b 66 44 a7 3d 34 58 02 3d e3 93 34 3d
       0.0077731563 0.08167343 0.0318224 0.04408635
000210 1d 03 22 bd 7d 3f ea bd 66 f4 d3 3d fd 03 ac 3d
       -0.03955375 -0.11437891 0.1034935 0.08399198
000220 4f e0 08 bc 4f 2e 0d 3c a1 76 fa 3d 6e f7 ab 3d
       -0.008354261 0.008616998 0.12229658 0.08396803
000230 c4 fb 81 3c 8e 3d 02 3e 1d 10 cc 3c 74 c6 e0 3d
       0.015867122 0.12718794 0.024910027 0.10975352
000240 e1 28 e1 3d 1a 71 11 3d 63 ea 31 bc 98 1d 34 3e
       0.10994125 0.035508253 -0.010859105 0.17589414
000250 fb 2a 3c be b3 28 a0 3d e6 34 0a be 6a 5d 9e be
       -0.18375771 0.07820263 -0.13496742 -0.30930644
000260 a5 66 89 be b4 7a 51 3d 04 82 48 be c8 37 e8 bd
       -0.26836124 0.05114241 -0.19580847 -0.113387644
000270 e7 56 92 bd 6d 88 84 bd 8c 6a 42 be 4f a1 e1 bd
       -0.071454816 -0.06471334 -0.18985957 -0.11017095
000280 9b 48 9c bd a2 55 67 3d e6 2c e1 bd 02 b2 3d 3d
       -0.07631036 0.05647815 -0.10994892 0.04631234
000290 e5 7e af bd 46 c2 32 be 57 2e a3 bd ae 9a cd 3c
       -0.08569125 -0.17456922 -0.07967823 0.025098171
0002a0 32 56 75 be 7d dc f2 bd 96 4d b6 3c 74 6f 1f 3e
       -0.23958662 -0.11858461 0.022253793 0.1556986
0002b0 92 7e d2 3b d5 da 36 3e 55 5e 97 bd df 87 e6 3d
       0.0064237798 0.17856915 -0.07391039 0.11256384
0002c0 d4 af 3a 3d ea 8c 05 be bc c5 46 3d a0 2a a3 bc
       0.04557784 -0.13042036 0.048528418 -0.019917786
0002d0 26 14 b1 3d cb 50 a6 3c 71 4b 8f be 1f 76 17 be
       0.08646421 0.020302197 -0.27987245 -0.14791153
0002e0 e2 e7 45 3d 83 dd 40 be ef 34 52 3e d8 4c 2b be
       0.048316844 -0.188345 0.20528005 -0.16728532
0002f0 16 7e 41 bc 04 a5 b7 bd db 4f 07 3e 2f 6e 3c 3e
       -0.011809846 -0.08967021 0.13214056 0.18401407
000300 75 ff 95 bd 4d a1 1e bc d3 9e 1f bd bb 4d a9 3d
       -0.07324115 -0.009682012 -0.038969826 0.08266779
000310 78 f9 bc bd e9 a5 1c be c5 55 f6 bd 1d a5 54 3d
       -0.0922727 -0.15297665 -0.12028078 0.051915277
000320 54 90 2b 3d 22 9f e0 3d b4 b9 12 3e 87 17 80 be
       0.04188569 0.10967852 0.14328653 -0.2501795
000330 ec b0 74 be 35 05 58 3d 70 75 6b 3e b0 21 4f be
       -0.23895615 0.05273934 0.22994018 -0.20227695
000340 f5 f3 8c be 4f f4 96 3d 39 e1 ec bc 65 d3 b2 3d
       -0.27529874 0.07370817 -0.028915988 0.087317266
000350 82 40 5d be ac f7 ae 3d 38 6d 21 3d ff 5d f5 bd
       -0.21606639 0.085433334 0.0394108 -0.11980819
000360 9c 67 b5 bd bb 6e 09 be 37 3d c4 3d 54 8d a6 bc
       -0.088576525 -0.13421147 0.09581988 -0.020331062
000370 03 ae 06 3d 08 98 9e 3e 6d 89 39 3e e0 f5 2a 3e
       0.032880794 0.30975366 0.1811883 0.16695356
000380 44 d2 78 be af 03 91 bd 7b d5 4f 3d d1 e1 7a be
       -0.2429896 -0.07080781 0.0507407 -0.24500205
000390 b7 23 fa bb 7e 5e ce 3d 98 12 c9 bd a4 d0 23 be
       -0.007633652 0.10076617 -0.098179996 -0.15997559
0003a0 ab 3a 64 3e 21 b9 ef bd f8 9e 47 3e 46 1f 89 3b
       0.22288005 -0.117052324 0.19494236 0.0041846363
0003b0 e7 66 21 be ff 7a 26 3e 6d 13 a0 bd fc 9a 7a bd
       -0.1576191 0.16257857 -0.07816205 -0.06118296
0003c0 67 ff 5e be c3 3e 98 3b 9a 50 48 be 5b e3 be bd
       -0.21777116 0.0046461537 -0.19561997 -0.09320708
0003d0 a3 00 79 be fe cf d1 3d ed 71 26 be 66 18 6e 3d
       -0.24316649 0.102447495 -0.16254397 0.058128737
0003e0 6c 8f b0 3c 7a e4 7f 3e 02 aa 44 3e 65 4c 11 3d
       0.021552764 0.249895 0.19205478 0.035473246
0003f0 29 6e b7 bd 23 2f 91 bd 6a 20 88 be 44 59 9d bc
       -0.08956558 -0.07089069 -0.2658723 -0.019207604

temporal_attn.temporal_layer_0.K_embedding_weights f4 [128, 128]
000000 c2 ba 0e 3e 1e 40 4b be 2f 78 2c bc 5c 02 60 3d
       0.1393843 -0.19848678 -0.010526701 0.05468975
000010 5a b7 37 bd 16 90 34 3e 6f 5b 4c 3e bd b7 28 3e
       -0.044852592 0.1763309 0.19956754 0.1647634
000020 93 e6 41 3d 7e 71 8a 3b df 6d a8 bd 90 a5 5f 3e
       0.047339033 0.004224955 -0.08224081 0.21840501
000030 09 3c 8a 3d 35 39 64 3d 7d 3f 12 be d4 40 13 be
       0.06749732 0.05571862 -0.14282031 -0.14380199
000040 61 61 91 3e 63 86 88 3d 1c b4 6a 3e f0 b7 85 bc
       0.28394607 0.06666257 0.22920269 -0.01632306
000050 14 2e 02 3d 87 32 88 bc 3b c3 61 be ce 47 31 3d
       0.031782225 -0.016625656 -0.22047131 0.04328137
000060 ab cc 3f 3d 23 8a 85 3e 7c 5a 6f be f1 7e bc bd
       0.046826046 0.26081952 -0.23374361 -0.092039
000070 31 39 62 3e 98 55 b0 bd 62 c5 84 3d 59 1c 2e bb
       0.2209213 -0.08610076 0.0648296 -0.002656719
000080 c5 0a 48 be c3 33 80 be 4a 42 71 bb 57 e2 76 be
       -0.19535358 -0.2503949 -0.0036813193 -0.2410978
000090 4b 33 45 be 3d 17 6c 3d 0b 0a 88 3c d0 74 ad 3d
       -0.19257848 0.05763935 0.016606351 0.08469546
0000a0 b7 4d 92 bd c7 8c 0a 3c 53 19 22 be 26 8f ba 3d
       -0.07143729 0.0084564155 -0.15829973 0.09109335
0000b0 29 a6 91 be a3 35 d8 bc c0 31 88 be 3f 84 8d 3d
       -0.28447083 -0.026392763 -0.26600456 0.069099896
0000c0 f5 06 2a 3d 91 af 19 3e b8 e6 b1 bd b1 c7 2c 3c
       0.04151054 0.1500838 -0.08686584 0.010545657
0000d0 18 5a c1 3c 88 7e e2 bd dc aa 05 be 80 0d 04 bd
       0.02360253 -0.1105929 -0.13053459 -0.032239437
0000e0 79 85 0e bd f6 80 0c bd 18 42 68 3d 60 8e 2d bd
       -0.03479526 -0.034302674 0.056703657 -0.042372108
0000f0 7b f4 6b bd ca 60 bb bd 73 e9 ba bd 8f f5 5f 3e
       -0.0576062 -0.091493204 -0.09126558 0.21871017
000100 8e a6 0e 3d a4 45 4e bd 91 74 71 3e 04 2b 2a bd
       0.034826808 -0.050359383 0.23579623 -0.04154493
000110 b1 02 65 be f4 1a 89 bd bc eb 5c bd 8b e5 73 be
       -0.22364308 -0.06694594 -0.05393575 -0.23818032
000120 71 1f a7 bc da ac 08 be b9 69 f1 bd ad 40 59 be
       -0.020400735 -0.13347188 -0.11787743 -0.21216078
000130 bb 28 4b bc f3 e0 38 3e 11 d9 68 bd 02 d9 8f 3d
       -0.012399848 0.18054561 -0.056847636 0.07023813
000140 30 b1 61 be d4 fa 64 3e 6e 72 49 be 03 d9 04 3e
       -0.22040248 0.22361308 -0.19672558 0.12973408
000150 95 e9 7d 3d ed 21 cd 3d 63 e9 4c bd ce 06 ed bd
       0.06199034 0.100162365 -0.050027262 -0.115735635
000160 72 49 36 3e 6d 06 b8 3d 47 a0 2f bd e0 d7 a3 3c
       0.17801455 0.089856006 -0.04287746 0.020000398
000170 27 67 16 3e 78 89 9f bd 45 44 5e be ad 15 2e be
       0.14687787 -0.07789892 -0.2170573 -0.17000456
000180 3e 7e 16 bb 57 cd 93 3c d7 33 ee ba 3d 9b 0c 3e
       -0.002296343 0.01804225 -0.0018173408 0.13731094
000190 c1 75 d4 3d bb 84 22 be 91 4e d1 3d eb 7e 87 bd
       0.10374022 -0.15870945 0.102200635 -0.066160046
0001a0 c4 07 25 3e 33 e6 37 3e 8f fe da 3d 25 2a 0b 3e
       0.16116244 0.17958908 0.106930844 0.13590296
0001b0 07 ca 42 3e ea 4e 5b be 23 f9 39 bd 64 ed 64 be
       0.1902238 -0.21416822 -0.04540361 -0.22356182
0001c0 23 48 dc 3c dd 76 3e 3d b0 61 9e be b6 88 ca bd
       0.026889866 0.046500076 -0.30933905 -0.09889357
0001d0 7a e7 60 3d b6 fa 02 3e 40 9d 60 be 1b 7c f3 bc
       0.054908253 0.12790951 -0.21934986 -0.029722264
0001e0 96 db 9a bd 70 85 aa bd 2b 3b 49 3e 96 a1 86 be
       -0.07561414 -0.083262324 0.19651477 -0.26295155
0001f0 19 e5 bc bc 12 a8 6c be 51 e8 2e bd c2 5b 21 be
       -0.023058461 -0.23110989 -0.042702023 -0.15757659
000200 d8 8d e1 3d 92 27 20 bc b1 5a 36 be d2 86 aa 3b
       0.11013383 -0.009775059 -0.17808034 0.00520406
000210 6b 85 05 be 6f c1 1f be 8a fb b0 bc f5 31 3b 3d
       -0.13039176 -0.15601133 -0.021604318 0.04570194
000220 b3 ac 03 bd 1b c0 43 3e 1e d8 3e bc 8a 72 80 3d
       -0.03214712 0.19116251 -0.011648206 0.062718466
000230 3c b7 e0 ba 49 b6 2e 3e 24 4c 67 3e 33 44 01 be
       -0.0017144452 0.17061724 0.22587639 -0.12623672
000240 6a d3 4d be 79 29 5f bd 90 1b 09 3e 05 12 ca 3d
       -0.2010018 -0.05448291 0.1338942 0.09866718
000250 47 e2 17 3e 79 a9 c7 3d c1 cd e8 3d ac a6 a4 3d
       0.14832412 0.09749121 0.113673694 0.08039603
000260 ab e4 01 3e 34 1b ff bd 51 7c ce 3d ce 55 28 be
       0.12684886 -0.124563605 0.10082305 -0.16438982
000270 19 9f 21 3e 01 38 ae bb ed dd 99 3d 81 07 8e be
       0.15783347 -0.005316735 0.07513032 -0.277401
000280 31 b3 ad 3d 2a 84 58 bd 59 93 58 3e 34 0d b9 bd
       0.08481444 -0.052860416 0.21149959 -0.090357214
000290 1c ea ae bd 60 28 bf 3c ab a7 85 be 07 fe 90 be
       -0.085407466 0.023334682 -0.26104483 -0.28318807
0002a0 a2 68 57 be 63 4b 7a 3d 62 74 83 3d eb a0 eb 3d
       -0.21036008 0.06110705 0.06418683 0.11505302
0002b0 4f ec d9 3d ad f2 6e be 64 e1 1c 3e 01 88 5a be
       0.106407754 -0.23334761 0.15320355 -0.21340944
0002c0 bc b5 82 3e dc e3 ea 3d 10 9d 7c be 15 6c bd 3d
       0.25529277 0.11469242 -0.2466929 0.09249131
0002d0 27 5d a4 be ba 7e 0a bc 15 52 3c 3d 9f 76 87 3e
       -0.3210232 -0.0084530655 0.045976717 0.26457688
0002e0 ce c2 8e 3e db 98 b2 3e 40 6c fb 3a 2e 27 92 3e
       0.27883 0.34882244 0.0019182041 0.28545517
0002f0 e0 71 91 3d 16 cb 02 3e 15 70 41 be d7 04 00 be
       0.07101798 0.12772784 -0.18890412 -0.12501846
000300 99 35 4d be be d0 15 be eb db 57 be fc cc 01 be
       -0.20039977 -0.1463041 -0.21079986 -0.12675852
000310 9c be 10 3e 73 f1 9f bd 96 79 5c bc c7 c4 13 bd
       0.14135212 -0.07809725 -0.013456723 -0.036076333
000320 d0 a3 bc bd 30 6e 2c 3e 03 2b 6c bd f7 11 cf bd
       -0.09210932 0.16838908 -0.057658207 -0.101108484
000330 2c eb 81 be 9f e5 ad bc ee 2e 40 3e fd fd 91 be
       -0.25374734 -0.021227656 0.18767902 -0.2851409
000340 78 33 83 3d 1e c7 56 be a3 77 47 be ce 88 6b 3d
       0.06406301 -0.20974395 -0.19479232 0.057503514
000350 6d ba eb bd dd bf 5e bd 13 01 4a bd ed e8 41 3e
       -0.11510167 -0.054382194 -0.04931743 0.1893651
000360 ac cf 58 3e 6c 66 2e 3d be 7b f9 bc 8f d2 45 be
       0.2117297 0.042578146 -0.030454513 -0.19318603
000370 9d 97 58 b9 5e cd d9 bd 9e a5 1e be 4b 43 2a 3e
       -0.00020655846 -0.10634874 -0.15492865 0.16627233
000380 30 92 88 bc 6e 9c 60 3d 32 73 e3 bc 63 be 60 3d
       -0.01667127 0.054836683 -0.02776489 0.054869067
000390 1b d5 3a be ef 6a 19 3d 71 69 c9 3d a0 cf 81 3d
       -0.18245356 0.037455495 0.098345645 0.063384295
0003a0 2a 33 59 bd d8 82 fd bd fd 85 20 3c 3d 51 85 be
       -0.05302731 -0.12378472 0.00979757 -0.26038542
0003b0 63 90 6c be cf 5e e1 3d 9f 49 b2 3c 62 95 0f 3d
       -0.23101954 0.110044114 0.02176362 0.035054572
0003c0 e5 68 01 be 0c 2e 9d bd cf cb 5b bb 33 00 ef 3d
       -0.1263767 -0.07674798 -0.0033538227 0.1166996
0003d0 e2 e8 2f be 0d ba c6 bc f0 0c b6 bd 4b 76 52 bd
       -0.17178681 -0.024258638 -0.088891864 -0.051382344
0003e0 00 1e 1e be ae 09 9e 3d 93 29 8c 3d dc 81 30 be
       -0.15441132 0.0771669 0.06843867 -0.17237037
0003f0 34 ac 13 3d ef a5 50 3d 20 c3 7d 3c 22 93 54 bd
       0.036052898 0.050939497 0.015488416 -0.05189813

temporal_attn.temporal_layer_0.V_embedding_weights f4 [128, 128]
000000 7a f2 d7 bb 32 7c ef ba 61 99 0b 3e be 37 d4 3d
       -0.0065901848 -0.0018271266 0.13632728 0.103621945
000010 2e e0 26 3d 7c d3 d5 3d 6d 4f 1d 3e 94 0a 5a 3d
       0.04074114 0.10440728 0.1536233 0.053232744
000020 76 60 56 3e 72 f9 2c 3d 94 90 c5 3d 53 46 84 bd
       0.20935234 0.042230077 0.09646717 -0.06458726
000030 23 43 c8 bc 7f fa 97 3d 6f c4 7b bd a8 68 2e be
       -0.024446076 0.07420825 -0.06146663 -0.1703211
000040 7c 1b 16 bc 78 b1 38 bd 31 6d 85 bd e7 23 e3 3d
       -0.009161826 -0.045091122 -0.06514967 0.11090832
000050 a1 03 14 bc 3a da 74 bd ff 36 7d 3c 5c 76 33 3d
       -0.009034068 -0.05977843 0.015455007 0.04381405
000060 e5 55 a8 bd 8c 8c c0 bd b8 88 45 3e 33 c9 a8 bd
       -0.08219508 -0.09401807 0.19290435 -0.08241501
000070 0e a4 ec 3d 67 9c 41 bd d5 70 1a bd 15 e0 34 bd
       0.115547284 -0.047268298 -0.03770526 -0.044159014
000080 b3 50 0e be b1 07 a1 3d c1 47 26 be 35 58 2a 3e
       -0.13897972 0.07862795 -0.1623831 0.16635211
000090 7a 8b 76 bc 87 2b 2e 3e 06 0b 0a 3d 31 1c 0d bc
       -0.015047902 0.17008792 0.03370192 -0.008612678
0000a0 7c 6d 5e bd c2 0f ba 3d 35 bc d2 3d 16 98 f6 3d
       -0.05430363 0.09085037 0.10289804 0.12040727
0000b0 c9 19 9d 3d 15 21 9e 3d 54 f4 79 3d 52 b7 f2 bd
       0.07670934 0.07721154 0.061024025 -0.11851372
0000c0 5f b5 d9 3d 3b a4 12 3d 1d fc b8 bd f4 96 2a 3e
       0.10630297 0.035801154 -0.09032462 0.16659147
0000d0 11 a8 be bd da 35 30 3d 9b 8e 96 3d 59 53 eb 3d
       -0.093094 0.043020107 0.073514186 0.11490507
0000e0 7b 6a 30 bd ef a8 14 3e 30 dc a4 bd b4 be f1 bc
       -0.043070298 0.14517568 -0.0804981 -0.02950988
0000f0 9a ad e6 3d 93 d8 17 3e a8 91 27 3d 1a 16 80 3d
       0.112635806 0.1482871 0.040910393 0.062542155
000100 d6 aa cf bd 33 d8 5b 3b 0f 78 d1 3d ba 7e fd 3c
       -0.10140006 0.0033545613 0.102279775 0.030944217
000110 92 fe 39 3d cb c7 3e 3e 1f 8f 4f bd 84 55 37 be
       0.045408793 0.18630902 -0.0506736 -0.17903715
000120 f1 35 86 3d b6 2f e3 bd ef 54 eb ba 82 a5 54 3d
       0.06553257 -0.110930845 -0.0017954389 0.051915653
000130 69 da 07 3e e5 e8 ad bc fc f7 84 bd 21 34 dc 3d
       0.1326691 -0.021229217 -0.06492612 0.1075213
000140 75 bc 6d bd 3a 7d 77 bc f6 3d 0b 3e 88 ac c3 bd
       -0.058041055 -0.01510554 0.13597855 -0.09554392
000150 db d2 b4 bd 98 ab 02 be a2 7b 99 bd bf 7f 8a bd
       -0.0882928 -0.1276077 -0.07494284 -0.06762647
000160 ef 04 76 3b 83 b8 9d bc f9 b7 bd 3d 7d 34 fa 39
       0.0037539562 -0.019253021 0.092636056 0.00047722823
000170 59 a6 8a 3c 3a 07 24 bd 67 8d de bc 27 cd 8b bd
       0.016925024 -0.040045954 -0.027167035 -0.06826239
000180 d8 66 44 3d ed ef 23 3e d3 d6 1b 3e 22 11 98 bd
       0.047949642 0.16009493 0.15218668 -0.07425143
000190 27 ce 1d be 7e 3a 8d bd 47 23 5e bb 19 27 fe bd
       -0.15410672 -0.06895922 -0.0033895539 -0.12409801
0001a0 aa d1 97 3d 8a cc 9f 3c 98 2a 10 3e ae 0d 55 bd
       0.07413037 0.019506712 0.14078748 -0.052015
0001b0 a5 eb 90 bd ce a0 05 3e 48 d6 9a bd ad e9 09 3e
       -0.070761956 0.13049623 -0.07560402 0.13468046
0001c0 6d dd cc bd 3d 62 e8 bd 45 b3 b8 3d 30 d3 01 3d
       -0.10003171 -0.113468625 0.09018568 0.031695545
0001d0 b7 ac c4 3d 25 6f a5 3d 5a 15 9c 3c 48 95 40 3d
       0.09603255 0.0807784 0.01905315 0.047017366
0001e0 46 10 67 3d 56 ff 09 3e 78 2c a8 3d 9b c5 f1 3c
       0.056412004 0.13476309 0.08211607 0.029513171
0001f0 f8 27 3a 3d 6f 6d 1b 3d 45 99 a2 bc 04 f6 a7 3c
       0.045448273 0.03794616 -0.019848475 0.020503052
000200 fc e7 75 bd f5 1b 1b bd e1 a9 0d be a4 4b 16 be
       -0.06003569 -0.03786846 -0.13834335 -0.14677292
000210 8d 55 43 3d 7c 6b dd 3c c9 b1 28 3d 76 6d 67 bc
       0.04768901 0.027028792 0.041185174 -0.014125219
000220 1a f8 79 3c 05 c3 8f bd 28 a9 d3 3c 6f b8 09 be
       0.015256906 -0.07019619 0.025837496 -0.13449262
000230 5b 26 f5 bd 9b 9e 4c 3c 1d 05 76 3d c9 03 02 be
       -0.11970206 0.012488986 0.06006347 -0.12696756
000240 60 a5 06 be 90 32 11 3e 41 14 9d 3d 45 48 03 3e
       -0.13149023 0.14179444 0.07669879 0.12820537
000250 72 c2 39 3d 56 fd d2 3b 0c 89 1e 3d b4 b8 0e be
       0.045351453 0.0064388914 0.038704917 -0.13937646
000260 e7 f5 73 3c 6c 28 8c bd a2 14 0a 3e 8d 6c 8b bd
       0.014890171 -0.06843647 0.13484433 -0.06807814
000270 0b 17 00 be 1f c4 18 bd 60 dd 82 bd b0 da 6f bd
       -0.1250879 -0.03729641 -0.0638988 -0.058558166
000280 13 6a ca bd ba da 48 bb 80 4c 54 bd 7f d6 12 3d
       -0.09883513 -0.003064795 -0.05183077 0.03584909
000290 d3 cb d0 3d ba 6d 3c bd ee 29 32 3d d4 d9 82 3d
       0.101951264 -0.04600308 0.04349702 0.06389204
0002a0 8a a8 a9 bd 3f 03 33 3e bd 26 47 3e d6 52 d2 bd
       -0.082840994 0.17481707 0.19448371 -0.10269706
0002b0 e3 a2 91 3d 12 07 32 bc 14 ae b6 3d 03 c7 41 bd
       0.07111146 -0.0108659435 0.089199215 -0.047308933
0002c0 b9 b4 95 bd b9 99 fd 3d c1 08 c2 bd 3a 91 b1 3d
       -0.07309861 0.12382836 -0.09474326 0.08670278
0002d0 50 06 15 3e f3 d2 bc bd 01 4b e5 3d 8d 9a 66 3c
       0.1455319 -0.09219923 0.111959465 0.014074934
0002e0 b7 30 9a bd 97 a9 14 be e1 c6 8f 3d a9 d0 86 bd
       -0.07528823 -0.14517818 0.07020355 -0.065827675
0002f0 d2 09 c2 3d 68 32 a2 bd c1 44 46 3d f5 b5 f5 bc
       0.09474529 -0.079197705 0.048405413 -0.02999399
000300 c7 45 a8 bc 8a 38 85 bc 1e a8 62 3d f7 57 ea 3d
       -0.020541085 -0.016262311 0.05533611 0.11442559
000310 fd 84 9e bd 70 74 fb bc f6 96 9e bc d5 50 71 3d
       -0.07740209 -0.03069517 -0.019359093 0.058914978
000320 d8 b9 1a 3e 29 09 24 3d 05 9e c1 bc a8 91 e9 bd
       0.15109956 0.0400478 -0.02363492 -0.11404735
000330 2d 8f da bc ed dc 94 3d d4 66 c8 bd ce cc 35 bd
       -0.0266796 0.07268701 -0.09785238 -0.04438477
000340 c2 82 eb bd 63 ca 30 3e 2f 45 88 bb 98 0c 1e be
       -0.114995494 0.17264704 -0.004158638 -0.15434492
000350 49 98 e6 bd 01 de 90 3c 2e 62 a9 bd 7e 5a 9d 3d
       -0.11259515 0.017683985 -0.082706794 0.07683276
000360 e9 63 c7 bd fe f8 2d 3e 0c 4d 94 3d 7c 85 43 3c
       -0.09735853 0.16989514 0.07241258 0.011933681
000370 c9 f8 ba 3d 8d 57 98 bd 30 75 7c bd 81 fa d3 bd
       0.09129483 -0.07438574 -0.061635196 -0.10350514
000380 a2 9c 52 bd 81 d9 95 bd 2f 87 bd bd a9 22 c2 3d
       -0.051418908 -0.07316876 -0.092543 0.09479267
000390 4a e2 a0 bd 92 88 36 bd 7f 72 3f bd 67 24 41 3d
       -0.07855661 -0.044563837 -0.04674005 0.047153857
0003a0 e2 56 0b 3c 3a 31 5c bc 72 03 e0 3d d4 54 47 3d
       0.008504601 -0.013439471 0.10938157 0.048664883
0003b0 c2 47 96 3d e1 d5 a0 3d 8c 83 c5 3c 4b 18 05 3e
       0.073379055 0.07853294 0.024110578 0.12997548
0003c0 1e 89 d0 bd 14 58 15 be cc 72 8c ba e7 95 04 3e
       -0.10182403 -0.1458438 -0.0010715364 0.12947808
0003d0 47 5a cd bd 39 0c 4a bd 46 4b 9c 3a 96 34 0b 3d
       -0.10026985 -0.049328063 0.0011924289 0.033985697
0003e0 f3 3a c5 3d 9a fd 90 3d 8e 39 90 3b 9b 0a 43 3e
       0.09630384 0.07079621 0.0044013923 0.19047014
0003f0 4d 14 76 3d ce e3 94 3d b7 40 8d bd 0c 62 16 3e
       0.060077954 0.07270013 -0.06897109 0.1468584
