model_checkpoints/model.pt (torch, 421959 bytes, 10 tensors)

structural_attn.structural_layer_0.att_l f4 [1, 16, 8]
0	0xbddec792	-0.10877909
1	0xbe1ad739	-0.15121163
2	0xbd9bf324	-0.07614735
3	0x3cc969e8	0.024586633
4	0xbe5fb6e7	-0.21847115
5	0xbe6efc9c	-0.2333855
6	0x3d22ced8	0.039748043
7	0xbd11eea5	-0.03562798
8	0xbe0b8c1e	-0.13627669
9	0x3e5fface	0.21873018
10	0x3d1b3804	0.037895218
11	0x3dd25840	0.102707386
12	0xbd300ebc	-0.0429828
13	0xbdd61286	-0.10452752
14	0x3dfe6fc2	0.1242366
15	0x3e35c184	0.17749602
16	0x3e8a6eea	0.27037746
17	0x3dedc29f	0.11609387
18	0xbbc206d1	-0.0059212227
19	0x3d542e78	0.05180213
20	0x3dc65676	0.0968446
21	0x3dd98bfd	0.10622404
22	0xbdce8e03	-0.1008568
23	0x3d3da5f4	0.046300843
24	0xbd75f2b6	-0.06004592
25	0xbe63d3c6	-0.22248754
26	0x3e7bfccd	0.24608155
27	0xbde3c3ab	-0.11121305
28	0x3cf542b1	0.029939028
29	0x3be266fa	0.0069092484
30	0xbdcdbc73	-0.100457095
31	0xbe1a4414	-0.15065032
32	0xbe4c9def	-0.19982122
33	0xbdc48539	-0.09595723
34	0xbd4ac916	-0.049508177
35	0xbd173ca5	-0.03692307
36	0xbe59c373	-0.21265964
37	0xbd757313	-0.059924196
38	0x3db8a42b	0.090156876
39	0xbe82c244	-0.25538838
40	0x3e7c01cf	0.24610065
41	0x3da34bdb	0.07973453
42	0xbdb0916b	-0.08621486
43	0x3e4cf982	0.20017055
44	0xbe26ecc9	-0.16301264
45	0xbd1ad59f	-0.03780138
46	0xbd9032f4	-0.070409685
47	0x3d2ad07d	0.041702736
48	0xbc02cc46	-0.007983273
49	0x3e3cf9db	0.18454687
50	0xbd7b59c3	-0.0613649
51	0xbd0210ea	-0.03175441
52	0xbe29af89	-0.16570868
53	0xbe49de40	-0.19713688
54	0x3e473371	0.19453217
55	0xbea98601	-0.3311005
56	0xbe4f5043	-0.20245461
57	0xbeb93022	-0.36169535
58	0x3e4a71da	0.19769993
59	0xbe4be48d	-0.19911404
60	0xbe9a6e65	-0.3016235
61	0x3e4b69e1	0.19864608
62	0x3dec0da7	0.115260415
63	0xbe0f8db0	-0.14018893
64	0x3da6174a	0.08109911
65	0x3c5b98b7	0.013403109
66	0xbd5bfe51	-0.053709332
67	0xbe80aa3a	-0.25129873
68	0xbd97f484	-0.074196845
69	0x3d9d8a5b	0.07692405
70	0xbd19b799	-0.037528608
71	0x3e0dee04	0.13860327
72	0x3def0fc7	0.11672931
73	0xbdf94750	-0.12171805
74	0x3e7ce2eb	0.24695937
75	0x3e755b9b	0.23960726
76	0x3b981047	0.0046406123
77	0x3e518d99	0.20464171
78	0x3d7b4ce7	0.061352637
79	0xbe6c3486	-0.23066911
80	0x3e14c7dd	0.14529367
81	0xbcd39ddd	-0.025832111
82	0xbe4810af	-0.19537614
83	0xbe08ddbb	-0.13365833
84	0xbc950401	-0.018190386
85	0x3e0c8fca	0.13726726
86	0xbe7cdeb3	-0.24694328
87	0xbdc7c8bd	-0.09755085
88	0xbe03442f	-0.12818979
89	0xbe95ac9d	-0.29233256
90	0xbd382b3e	-0.044963114
91	0xbdb7fda0	-0.08983922
92	0x3ca78cc4	0.020452864
93	0x3ccaf9ed	0.024777377
94	0x3e29ac47	0.16569625
95	0xbe68fad2	-0.2275193
96	0xbe1a5a7e	-0.15073583
97	0xbcfabff0	-0.030609101
98	0x3daf1a2b	0.08549913
99	0x3e77414c	0.24146003
100	0xbe93abc0	-0.28841972
101	0xbc2061ec	-0.009788971
102	0x3dc38452	0.095467225
103	0x3e5148b9	0.20437898
104	0xbe511f6f	-0.20422147
105	0x3c79b41e	0.015240697
106	0xbd30a2ab	-0.043123882
107	0x3e5a367e	0.2130985
108	0x3e9de40a	0.30838042
109	0x3e2994d8	0.16560686
110	0xbdadd903	-0.08488657
111	0x3daa1970	0.08305633
112	0xbe37e5f3	-0.17958812
113	0xbd789ce8	-0.060696512
114	0xbe82ac64	-0.2552215
115	0xbe333789	-0.17501654
116	0x3dc173c9	0.094459124
117	0xbe647db8	-0.22313583
118	0x3d26e9ba	0.040750243
119	0xbe3223cb	-0.17396466
120	0xbdbe7e5b	-0.09301444
121	0xbdd5880b	-0.10426339
122	0x3cc8e322	0.024522368
123	0xbd733cb9	-0.05938408
124	0xbe31cb66	-0.17362747
125	0x3d8f7d85	0.07006363
126	0xbe608039	-0.21923913
127	0x3e0a8168	0.13525927

structural_attn.structural_layer_0.att_r f4 [1, 16, 8]
0	0x3ddb7b5f	0.107168905
1	0xbd8d8094	-0.0690929
2	0x3e185099	0.14874496
3	0xbe6430fb	-0.2228431
4	0x3e974f4c	0.29552686
5	0x3e195e0d	0.14977284
6	0x3d0b254d	0.03397112
7	0xbd4cf375	-0.050036866
8	0xbe525a61	-0.2054229
9	0x3e57ae90	0.21062684
10	0xbd970cf6	-0.07375519
11	0xbe3251cb	-0.17414014
12	0xbda98512	-0.08277334
13	0xbe61fe76	-0.22069725
14	0xbdd78852	-0.10524048
15	0x3dac35cd	0.08408699
16	0xbe60c028	-0.21948302
17	0x3e1c8ba5	0.15287645
18	0x3e5bd060	0.21466208
19	0x3e7f17b3	0.24911384
20	0xbc7e1e8e	-0.0155102145
21	0x3e361907	0.17782985
22	0xbe1bcc85	-0.15214737
23	0xbe38b50c	-0.18037814
24	0x3be25654	0.006907264
25	0xbe1692e1	-0.14704467
26	0x3d2db769	0.04241124
27	0x3df26766	0.11836128
28	0x3cb0becc	0.021575354
29	0xbe161578	-0.14656627
30	0xbca87e7c	-0.020568125
31	0xbd93f08d	-0.07223616
32	0xbc8c1100	-0.01709795
33	0x3e4e2812	0.20132473
34	0xbdf807d0	-0.12110865
35	0x3dadb808	0.08482367
36	0x3e5d37ad	0.2160327
37	0x3e39fe50	0.18163419
38	0xbd064a88	-0.032785922
39	0x3d46aee4	0.048506632
40	0xbea584a7	-0.32327768
41	0xbe0de5a1	-0.13857128
42	0x3e01f0fd	0.12689586
43	0xbc03290d	-0.008005393
44	0xbcc0034f	-0.023439078
45	0x3e52afe1	0.20574905
46	0xbc9356cc	-0.017985724
47	0x3bbaeaf5	0.0057042786
48	0x3e81df81	0.25365832
49	0xbe4823de	-0.19544932
50	0xbe4145fe	-0.18874356
51	0xbccd12ea	-0.025033433
52	0x3eab2b89	0.33431652
53	0xbe1459f6	-0.14487442
54	0xbe118a02	-0.14212802
55	0x3ddba695	0.107251324
56	0x3e77252b	0.24135272
57	0x3e2da7f7	0.16958605
58	0xbe08fcd0	-0.1337769
59	0xbe9f2668	-0.3108399
60	0xbd071563	-0.03297938
61	0xbd3e6e1e	-0.046491735
62	0x3e1da0d2	0.1539338
63	0x3b822394	0.0039715264
64	0x3c77803f	0.01510626
65	0xbe51d510	-0.20491433
66	0x3dcc0368	0.09961587
67	0x3e68e323	0.22742896
68	0xbd863167	-0.065523915
69	0xbda6b59a	-0.081401065
70	0xbde07100	-0.10959053
71	0xbd87bcf1	-0.066278346
72	0x3e35e00d	0.1776125
73	0x3e9ec66c	0.3101076
74	0xbd3cf8fc	-0.046135888
75	0x3e20eb34	0.15714723
76	0x3e407fa6	0.18798694
77	0x3e7fc8b4	0.24978906
78	0xbe57d875	-0.21078666
79	0x3c6ec72e	0.014573855
80	0xbd3aa598	-0.04556808
81	0x3d4e541f	0.050373193
82	0x3e412004	0.18859869
83	0x3e45de84	0.19323164
84	0x3da57b29	0.080801316
85	0x3e52a3f0	0.2057035
86	0x3c25a849	0.010110923
87	0xbe70b6ed	-0.2350728
88	0xbd9de99d	-0.07710574
89	0xbe22128d	-0.15827389
90	0x3e2e87e4	0.17044026
91	0xbe1a103e	-0.15045258
92	0x3c45bd10	0.012069002
93	0xbc9c3298	-0.019067094
94	0x3e6a6e7a	0.22893706
95	0x3e440a16	0.19144472
96	0x3b7f6206	0.0038968339
97	0xbe6bd0d1	-0.23028876
98	0xbd8998e8	-0.06718618
99	0xbded6947	-0.11592346
100	0x3e1e6f71	0.15472199
101	0xbe1a491f	-0.15066956
102	0xbe429e91	-0.19005801
103	0xbe98f77a	-0.2987631
104	0x3d4a07e6	0.04932394
105	0x3e767aa5	0.24070223
106	0x3db624d9	0.08893747
107	0x3b44a57f	0.003000587
108	0xbe79460f	-0.24343131
109	0xbeb420ae	-0.35181183
110	0xbc839ada	-0.01606505
111	0x3e32c1a9	0.17456688
112	0x3e410b77	0.1885203
113	0x3e747b5c	0.23875183
114	0xbe7ceb3b	-0.24699108
115	0xbe50bb64	-0.20383984
116	0x3deb5951	0.11491645
117	0x3dce92b6	0.10086577
118	0xbe590afe	-0.211956
119	0x3cd0fa24	0.025509901
120	0x3ccb2bba	0.024801124
121	0x3e1888ae	0.14895889
122	0x3e58bfd6	0.2116693
123	0xbdd91368	-0.105994046
124	0x3e481962	0.19540933
125	0xbde92af9	-0.113851495
126	0xbcecf1ea	-0.028923947
127	0x3d8759be	0.06608914

structural_attn.structural_layer_0.lin.weight f4 [128, 143]
0	0x3db4fe17	0.08837526
1	0xbd1ddea6	-0.038542412
2	0xbd2f9a82	-0.04287196
3	0x3cf4a124	0.029861994
4	0xbb43e8bf	-0.0029893366
5	0xbd79233a	-0.06082461
6	0x3c07ee43	0.008296552
7	0xbdb60620	-0.08887887
8	0xbd24209f	-0.040070172
9	0xbba33e53	-0.004981795
10	0xbd915d77	-0.07097905
11	0x3d6135d8	0.05498299
12	0xbc5c3897	-0.013441226
13	0x3cedede7	0.029044105
14	0xbc29a603	-0.010354522
15	0x3d4199ed	0.047265936
16	0xbcd71ab0	-0.026257843
17	0x3dc6f36e	0.09714399
18	0x3dbcadc5	0.092128314
19	0xbd827e74	-0.06371775
20	0x3d8cd45a	0.0687644
21	0x3d3e520d	0.04646497
22	0x3e157ea4	0.14599091
23	0xbe03a6aa	-0.12856546
24	0xbd1b983f	-0.03798699
25	0xbce25282	-0.027627233
26	0x3d1f3d0b	0.038876574
27	0x3c687662	0.014188381
28	0xbd65a200	-0.0560627
29	0x3a418909	0.00073827856
30	0xbcf3ef44	-0.029777177
31	0x3e2ac996	0.16678461
32	0x3e4400e8	0.1914097
33	0x3e274837	0.16336142
34	0x3e0e0105	0.13867576
35	0x3d83caf3	0.06435194
36	0x3e121623	0.14266257
37	0x3da9bb8d	0.082877256
38	0xbdbe7222	-0.09299113
39	0xbe101d67	-0.14073716
40	0x3e6c3b84	0.23069578
41	0x3d334ed9	0.043776367
42	0xbd6c2fd8	-0.057662815
43	0x3bd8983e	0.0066099456
44	0xbd848177	-0.06470006
45	0xbd765831	-0.0601427
46	0x3ddea40c	0.10871133
47	0x3cab9116	0.020943206
48	0xbdcc63c0	-0.09979963
49	0x3da9491f	0.082659
50	0xbdb64866	-0.08900528
51	0xbe8a014d	-0.26954117
52	0x3e204152	0.15649918
53	0x3cc9cb57	0.024633093
54	0xbcf0eb78	-0.029409155
55	0x3d80b037	0.0628361
56	0xbe0ac553	-0.13551836
57	0x3d2c6f6c	0.042098448
58	0x3d9b5e77	0.07586377
59	0xbd976b6c	-0.07393536
60	0xbd8e988a	-0.06962688
61	0xbdb7c9ad	-0.089740135
62	0xbda13c76	-0.0787286
63	0xbd35c1c0	-0.044374228
64	0xbd3869d8	-0.045022815
65	0xbe196b89	-0.14982428
66	0xbd925720	-0.07145524
67	0x3e2222af	0.15833543
68	0xbca7fc84	-0.020506151
69	0xbe173356	-0.14765677
70	0x3d9a50e5	0.07534961
71	0xbda02a21	-0.078205355
72	0xbd395679	-0.045248482
73	0x3e4d6b8f	0.20060562
74	0xbd6ff036	-0.058578692
75	0xbd744ea9	-0.05964533
76	0x3d8bb807	0.0682221
77	0x3e268070	0.16259933
78	0x3d8876c5	0.066632785
79	0x3d2eb0cc	0.042649075
80	0x3d8a87bb	0.0676417
81	0xbe012dff	-0.12615202
82	0xbe378ac1	-0.17924024
83	0x3dda91e4	0.10672358
84	0xbe00f79d	-0.12594457
85	0xbcd32a60	-0.025777042
86	0x3e18c5e4	0.1491924
87	0xbc20e57a	-0.0098203365
88	0xbe614c0e	-0.22001669
89	0xbdc6ccfb	-0.09707066
90	0xbe118eda	-0.1421465
91	0xbdf5d15f	-0.12002825
92	0x3d7520e5	0.059845824
93	0xbde98d39	-0.11403889
94	0xbe0bf5c8	-0.13667977
95	0xbe6f86f7	-0.23391329
96	0x3dd53d04	0.104120284
97	0x3e1ae341	0.15125753
98	0xbdbb25a3	-0.09138038
99	0x3c934d32	0.017981146
100	0x3e1137ee	0.14181492
101	0x3d63b9e0	0.055597186
102	0x3d0fe509	0.035130534
103	0x3cc1bb1f	0.023648797
104	0x3e0af36e	0.13569424
105	0x3e0a80a8	0.13525641
106	0x3dac1f28	0.0840438
107	0xbc8a33cd	-0.016870404
108	0xbccd7c02	-0.025083546
109	0x3e256398	0.16151273
110	0xbe2b9553	-0.16756181
111	0xbe6dfbef	-0.23240636
112	0x3caee133	0.021347618
113	0x3d6ed01e	0.058303945
114	0xbe1d08d8	-0.15335405
115	0xbcf304e0	-0.02966541
116	0xbdc52c44	-0.096275836
117	0xbd8b77e3	-0.06809976
118	0xbddb5c68	-0.107109845
119	0xbdaddd0a	-0.084894255
120	0xbdf36c98	-0.11885947
121	0xbe2d0309	-0.16895689
122	0xbdd80955	-0.10548655
123	0xbd9789b7	-0.07399314
124	0xbe1c3664	-0.15255123
125	0xbdd02b7a	-0.101645425
126	0xbe1b7903	-0.15182881
127	0xbe37c849	-0.17947496
128	0xbe0a05fc	-0.13478845
129	0xbddcc071	-0.10778893
130	0x3e138957	0.1440786
131	0xbe852e24	-0.26011765
132	0x3d4f4705	0.05060484
133	0xbe400533	-0.18751983
134	0xbca98159	-0.02069156
135	0xbd972c72	-0.07381524
136	0x3e05f282	0.1308079
137	0x3d6d0014	0.057861403
138	0xbdcd3829	-0.10020477
139	0xbdeb5869	-0.11491472
140	0x3d8b84ab	0.06812414
141	0xbd9d96e6	-0.07694797
142	0xbb6843d4	-0.003544082
143	0xbcbe6cff	-0.023245333
144	0xbd6fb381	-0.058520798
145	0xbd0491e7	-0.032365706
146	0xbc29e731	-0.010370062
147	0x3b96c1d0	0.004600741
148	0xbd79e55f	-0.06100976
149	0xbd671d8c	-0.056424662
150	0x3c3d2fb6	0.01154702
151	0xbd8bc87f	-0.06825351
152	0xbd3e1b7d	-0.046412934
153	0xbde81d60	-0.11333728
154	0xbdb8104e	-0.08987485
155	0xbd11e078	-0.03561446
156	0xbe09195c	-0.1338858
157	0x3cf38caf	0.02973017
158	0xbd15b6fd	-0.036551464
159	0xbd2d31ba	-0.04228375
160	0xbd008772	-0.03137917
161	0xbd82d68d	-0.063885786
162	0xbdb68c0f	-0.08913433
163	0xbcd8d201	-0.026467325
164	0xbce85e54	-0.028365292
165	0xbd7a69a0	-0.061135888
166	0xbd958535	-0.07300798
167	0x3bc9c1ed	0.006157151
168	0xbc06b4ad	-0.008221787
169	0x3d6337b4	0.055473045
170	0x3c496611	0.012292401
171	0xbcd8c6df	-0.026462017
172	0xbd349ab1	-0.044092838
173	0xbda0f4d5	-0.07859198
174	0xbd8cea59	-0.06880636
175	0xbd21cde4	-0.039502993
176	0xbcf6364d	-0.03005519
177	0xbd8728f5	-0.06599609
178	0xbdcaa9c8	-0.098956645
179	0xbdd5bb6a	-0.10436137
180	0xbe005971	-0.12534119
181	0xbd55cc53	-0.052196812
182	0x3d373a4c	0.04473333
183	0x3b4b032c	0.0030977232
184	0xbd9e9fde	-0.07745336
185	0xbca7abbc	-0.020467632
186	0x3cb23ce4	0.02175755
187	0xbc21cfdc	-0.009876218
188	0xbd72b577	-0.05925509
189	0xbb146857	-0.00226452
190	0xbc7a8ab5	-0.015291859
191	0xbd24bf7e	-0.040221684
192	0xbdb490b6	-0.08816664
193	0xbd9a80c3	-0.075440906
194	0xbe4a27ea	-0.19741789
195	0xbd81e4b2	-0.06342448
196	0x3d83377b	0.064070664
197	0xbdc241e2	-0.094852224
198	0xbde80b92	-0.11330332
199	0xbd9dba92	-0.07701601
200	0xbe14e2a4	-0.14539582
201	0xbc498013	-0.012298602
202	0xbe1622e4	-0.14661747
203	0xbd00ca69	-0.031443033
204	0xbd45ad4d	-0.048260976
205	0xbdbaaf45	-0.09115461
206	0xbd1f53a6	-0.038898133
207	0x3cf8da6e	0.030377593
208	0x3d31e935	0.043435294
209	0xbb97a353	-0.004627624
210	0x3da73094	0.081635624
211	0x3a0cd695	0.00053725514
212	0xbd4cd143	-0.050004255
213	0xbd1e7918	-0.038689703
214	0x3be7f9d6	0.0070793433
215	0xbe106b4d	-0.14103432
216	0x3d256df5	0.040388066
217	0xbd1a3713	-0.03765018
218	0xbd96fd04	-0.07372478
219	0xbda43d03	-0.080194496
220	0xbd63ff1a	-0.055663206
221	0xbc4ac230	-0.0123753995
222	0xbd00030f	-0.031252917
223	0xbdc0ca32	-0.09413566
224	0xbc5fa369	-0.0136498
225	0x3e1f4c10	0.1555636
226	0xbd42775f	-0.047477122
227	0x3d902707	0.07038694
228	0xbd9af04d	-0.07565365
229	0x3d9076ec	0.070539325
230	0xbd877ac1	-0.0661521
231	0x3e4ce3e1	0.20008804
232	0xbbbd246f	-0.0057721655
233	0x3e54ad0e	0.2076914
234	0x3dd23abd	0.1026511
235	0x3e1027ba	0.14077654
236	0x3d325e51	0.04354698
237	0x3e14e8ae	0.14541885
238	0x3d0eb01c	0.03483592
239	0x3d2c896f	0.042123254
240	0x3d37c656	0.044866882
241	0x3cf66983	0.030079609
242	0xbcf17f8c	-0.029479764
243	0x3da16840	0.07881212
244	0x3c83c534	0.016085245
245	0x3d479afe	0.048731796
246	0x3b3b858f	0.0028613543
247	0xbaadd8ab	-0.0013263425
248	0xbd9662ce	-0.07343064
249	0x3cd55a1a	0.02604394
250	0xbd1a8c51	-0.037731472
251	0xbdf5f141	-0.12008906
252	0x3db3f589	0.087870665
253	0xbd0b4907	-0.03400519
254	0x3d5db016	0.054123007
255	0x3c7160ec	0.014732581

structural_attn.structural_layer_0.lin_residual.weight f4 [128, 143]
0	0xbd078a83	-0.03309108
1	0xbd3df86a	-0.046379484
2	0xbcf68e2b	-0.030097088
3	0xbcfcc086	-0.030853521
4	0x3aa4ba65	0.0012567757
5	0x3ca518dc	0.020153455
6	0x3c7fcee6	0.015613293
7	0xbd116a6f	-0.035501894
8	0xbcdccf75	-0.026954392
9	0x3cc6399b	0.02419739
10	0x3d781e8c	0.060576007
11	0x3cf4c6b0	0.029879898
12	0xbd89a361	-0.06720615
13	0x3c0cbfe1	0.008590669
14	0x3bb0b805	0.0053930306
15	0x3d4214fe	0.0473833
16	0x3d0ec3cf	0.034854706
17	0x3c13a9ce	0.009012653
18	0x3acaa748	0.0015461231
19	0xbdaf4781	-0.0855856
20	0xbdb7ad12	-0.089685574
21	0xbd81bf5e	-0.063353285
22	0x3dddb178	0.10824865
23	0xbc8cb7b0	-0.017177433
24	0xbc53f52e	-0.012936873
25	0xbe0bde5b	-0.1365904
26	0xbd68ce80	-0.05683756
27	0x3dfe342a	0.12412293
28	0xbd8c14ee	-0.068399295
29	0xbd1ebe87	-0.03875592
30	0xbcc95113	-0.024574792
31	0x3e01c7a8	0.12673819
32	0x3d9d2cc3	0.07674553
33	0x3d8861ad	0.06659255
34	0xbcd4b081	-0.02596307
35	0x3d6e815b	0.05822883
36	0x3e3f170c	0.18661135
37	0x3d30f5d0	0.043203175
38	0xbe1b44a5	-0.15162905
39	0xbd9624c5	-0.07331232
40	0x3dd7e15d	0.105410315
41	0xbde1d7a6	-0.1102746
42	0xbdf48dc8	-0.11941105
43	0x3c32818a	0.010895142
44	0xbca90662	-0.020632926
45	0xbd492cea	-0.0491151
46	0x3d3dc190	0.046327174
47	0x3ccc9b5e	0.024976429
48	0xbe436582	-0.19081691
49	0x3de25532	0.11051406
50	0xbc6354ba	-0.013875181
51	0xbe811e62	-0.25218493
52	0x3e06cb84	0.13163573
53	0xbd12ea1d	-0.0358678
54	0x3c852799	0.016254233
55	0x3c9fdef4	0.019515492
56	0xbe3910a1	-0.1807275
57	0x3e16b9bf	0.14719294
58	0x3e1c1f3f	0.15246294
59	0xbe3aab32	-0.18229368
60	0xbcad35cd	-0.021143818
61	0xbd798980	-0.060922146
62	0xbd991a2e	-0.074756965
63	0x3b466e08	0.0030277986
64	0xbd7f11da	-0.062272884
65	0x3c007266	0.007839775
66	0xbd4d49b9	-0.050119136
67	0x3d74ac93	0.059734892
68	0x3cf08fb3	0.029365396
69	0xbd8fd003	-0.07022097
70	0x3e4979eb	0.19675414
71	0xbc9acde6	-0.018897008
72	0xbdde6dc3	-0.10860779
73	0x3e422cff	0.18962477
74	0xbd3a3358	-0.04545912
75	0xbd3882d5	-0.045046646
76	0x3d67d9a1	0.05660403
77	0x3e2bb3f6	0.16767868
78	0x3db363c5	0.08759264
79	0x3c5591ce	0.013035251
80	0x3c8d5b2a	0.017255384
81	0xbde6f9bc	-0.11278102
82	0xbe35e11f	-0.17761658
83	0x3d52856a	0.051396765
84	0x3dc8e45e	0.098091826
85	0x3c3bc21c	0.0114598535
86	0x3e8a7820	0.27044773
87	0xbd9cbc1a	-0.07653065
88	0x3cd82059	0.026382612
89	0xbdee715f	-0.116427176
90	0x3d111ed2	0.035429783
91	0xbe030d19	-0.12797965
92	0x3c8ca494	0.01716832
93	0xbdf163d8	-0.11786622
94	0xbe4f95db	-0.20272009
95	0xbda1258c	-0.078684896
96	0x3dfc4c4c	0.1231924
97	0x3dfbc1bc	0.12292811
98	0xbda3b0ed	-0.0799273
99	0xbd7d18e8	-0.06179133
100	0x3d98d32b	0.07462152
101	0xbcd6ba6c	-0.02621194
102	0x3d1ac462	0.03778494
103	0x3d877e60	0.06615901
104	0xbcc019b3	-0.023449754
105	0x3de694a8	0.11258823
106	0x3d2ee94b	0.042702954
107	0xbd7b8a50	-0.061411202
108	0xbd9ef454	-0.07761446
109	0x3e00ecd2	0.1259034
110	0xbdb6643b	-0.08905836
111	0xbe10a5fc	-0.14125818
112	0x3d88e9f9	0.06685252
113	0x3db12cd2	0.08651127
114	0xbd433b6c	-0.04766409
115	0xbe40ec1e	-0.18840072
116	0xbdb5ab13	-0.088705204
117	0xbe353a8d	-0.17698117
118	0xbdf87f5d	-0.121336676
119	0xbb83a642	-0.004017622
120	0x3c836f23	0.016044205
121	0xbe45be7d	-0.19310947
122	0xbe215241	-0.15754034
123	0xbe68687c	-0.22696108
124	0xbe157b35	-0.14597781
125	0xbe2a8b57	-0.16654716
126	0xbe6726a9	-0.22573341
127	0xbe09af8e	-0.13445875
128	0xbd9d4808	-0.076797545
129	0xbe41a368	-0.18909991
130	0x3e164cce	0.14677736
131	0xbe72315d	-0.23651643
132	0x3b10a671	0.0022071863
133	0xbd837fc0	-0.06420851
134	0xbdaa71d3	-0.083224915
135	0xbd09cbb1	-0.03364152
136	0x3e2eadab	0.17058437
137	0x3d902e07	0.07040029
138	0xbdfae02d	-0.122497894
139	0xbe208bb1	-0.15678288
140	0x3dea1d3d	0.11431358
141	0xbd16fe3a	-0.036863543
142	0x3ce4fe45	0.027953276
143	0xbde95aca	-0.1139427
144	0xbd876f9e	-0.06613086
145	0x3d35ee2e	0.0444166
146	0xbd5f69aa	-0.05454413
147	0xbd29d6a4	-0.041464463
148	0xbd674609	-0.056463275
149	0xbca8ad3e	-0.02059042
150	0xbe014469	-0.12623753
151	0xbd904dbe	-0.07046078
152	0xbdf838b7	-0.121201925
153	0xbdca801d	-0.09887717
154	0xbe01003d	-0.12597747
155	0xbdf87173	-0.12131014
156	0xbdba8951	-0.09108222
157	0xb7c818ed	-2.3853465e-05
158	0xbdbc0330	-0.091802955
159	0xbc82b15a	-0.015953708
160	0xbd0b8cce	-0.03406983
161	0xbd901488	-0.07035166
162	0xbd99ffff	-0.075195305
163	0xbdcea6db	-0.10090419
164	0xbd3f6e4f	-0.046736058
165	0xbd412af0	-0.04716009
166	0x3d04192d	0.032250572
167	0xbdbe0da1	-0.09279943
168	0xbbb73ad1	-0.0055917283
169	0xbc845753	-0.01615492
170	0xbdcbaf92	-0.09945597
171	0x3cd6cce8	0.026220754
172	0x3d056cdb	0.032574516
173	0xbc818ae9	-0.015813308
174	0x3c989242	0.018624429
175	0xbd931eed	-0.07183633
176	0x3c516571	0.012780533
177	0x3d62e611	0.05539519
178	0xbd8e5885	-0.069504775
179	0xbde46d8d	-0.11153708
180	0xbd644fbd	-0.055740107
181	0xbd18e29a	-0.03732548
182	0x3cb9ee11	0.022696527
183	0xbc5e8475	-0.013581385
184	0xbd9534eb	-0.07285484
185	0x3d2bc187	0.04193261
186	0xbc86baf7	-0.016446574
187	0x3d413732	0.04717178
188	0xbda173f7	-0.07883447
189	0x3d2b6a0e	0.04184919
190	0x3d1e43a7	0.038638737
191	0xbd1cdaf2	-0.03829474
192	0xbd4a37be	-0.049369566
193	0xbdb81686	-0.08988671
194	0xbe35e5ab	-0.17763393
195	0x3cee216f	0.029068677
196	0x3d8dbad3	0.069203995
197	0xbd8c0cfe	-0.068384156
198	0xbde069e0	-0.10957694
199	0x3d40c836	0.047065936
200	0xbd6b6c20	-0.057476163
201	0xbd9c3039	-0.07626385
202	0xbe5e91db	-0.21735327
203	0xbd92aca1	-0.071618326
204	0xbdbf96b9	-0.0935492
205	0xbd67931a	-0.05653677
206	0xbda70483	-0.081551574
207	0xbd5dc130	-0.054139316
208	0xbd6cd0b3	-0.05781622
209	0x3d1a6d83	0.037702095
210	0x3d53051a	0.051518537
211	0x3cfb5fb9	0.030685293
212	0xbc27bede	-0.010238377
213	0xbcbb3a7b	-0.022855034
214	0xbc9b2ef6	-0.018943291
215	0xbd9977f0	-0.074935794
216	0xbbb21df8	-0.0054357015
217	0xbd6c0d1a	-0.057629682
218	0xbd59e468	-0.05319634
219	0xbd42b32a	-0.047534145
220	0xbc8032c9	-0.015649216
221	0xbd85a7e6	-0.06526165
222	0x3da070d9	0.07834024
223	0xbdd91318	-0.10599345
224	0x3dc67c73	0.096917056
225	0x3d64daa7	0.055872586
226	0x3dbbc285	0.09167961
227	0xbd1460c7	-0.036225107
228	0xbd17db0f	-0.037074145
229	0xbd151cf5	-0.03640457
230	0xbda63e7a	-0.08117385
231	0x3e04177d	0.12899585
232	0x3c1b9515	0.009495993
233	0x3e30c02a	0.17260805
234	0x3e12988d	0.14316006
235	0x3e17d704	0.14828116
236	0x3d6dd0ec	0.05806057
237	0x3ca02283	0.019547706
238	0x3e15392e	0.14572594
239	0xbd911abd	-0.07085178
240	0x3db25f8a	0.08709629
241	0x3d4cdf9a	0.05001793
242	0x3bad5543	0.005289705
243	0x3d9ac21c	0.07556555
244	0xbcea4395	-0.028596679
245	0x3b86efa6	0.004117924
246	0xbd418c98	-0.04725322
247	0xbcefeb34	-0.029286958
248	0xbe0cfd62	-0.13768533
249	0xbca0deab	-0.019637426
250	0xbdb7d3dc	-0.08975956
251	0xbe069169	-0.13141407
252	0xbcc3a43d	-0.023882026
253	0x3dc715ca	0.09720953
254	0xbc1e4eca	-0.009662339
255	0xbde84dea	-0.11342986

temporal_attn.temporal_layer_0.position_embeddings f4 [16, 128]
0	0x3c652861	0.013986678
1	0x3dd04503	0.10169413
2	0xbbbdd7b1	-0.0057935347
3	0xbcdfccb5	-0.027319292
4	0x3d9b78ca	0.07591398
5	0xbd63c1ec	-0.05560486
6	0xbc5d9d63	-0.013526293
7	0xbcb0b325	-0.021569798
8	0xbba793d3	-0.0051140576
9	0x3d499e0a	0.049222983
10	0xbd02fc08	-0.031978637
11	0x3de2a5eb	0.110668026
12	0xbc2613ac	-0.010136526
13	0xbd33bc9c	-0.043881044
14	0x3dc2aee6	0.095060155
15	0x3dc1826e	0.094487056
16	0xbcdec8ac	-0.027195297
17	0x3dd58ff9	0.10427851
18	0xbcbbac7c	-0.022909395
19	0x3ddfb61a	0.10923405
20	0x3d0d2983	0.034463417
21	0x3cb27c78	0.021787867
22	0xba8f79f7	-0.0010946383
23	0x3dd1a6ec	0.10236916
24	0xbdaf5f0f	-0.08563053
25	0x3cf1c5ac	0.029513203
26	0x3d3f2253	0.046663594
27	0x3d8afa4b	0.06786021
28	0xbcc12898	-0.023578927
29	0x3d40abbd	0.047038782
30	0xbb7d8099	-0.0038681387
31	0xbdd11eae	-0.1021093
32	0x3d971172	0.07376374
33	0x3c433486	0.011914378
34	0x3de0ae7f	0.109707825
35	0x3bf17f57	0.0073699164
36	0xbdc9c386	-0.09851746
37	0xbe125454	-0.14289981
38	0xb858e650	-5.171291e-05
39	0xbaa6256f	-0.0012675951
40	0xbdc7a6bf	-0.09748601
41	0xbda367ad	-0.07978759
42	0xbd43f249	-0.047838483
43	0xbd843f6e	-0.06457411
44	0xbda9e4fd	-0.08295629
45	0xbcdf568c	-0.027262948
46	0xbdc16a35	-0.094440855
47	0xbb9f5c99	-0.0048633334
48	0x3da2e964	0.07954672
49	0x3cb3135f	0.021859823
50	0x3c13bfa6	0.0090178605
51	0x3c59433a	0.013260657
52	0x3d186169	0.037202273
53	0x3a4db31f	0.00078468205
54	0x3d40e4da	0.04709325
55	0x3d18c9ca	0.037301816
56	0x3dbcf9d4	0.092273384
57	0x3dcd082e	0.10011326
58	0xbdcba118	-0.099428356
59	0x3cb599f8	0.022168145
60	0x3cf6767f	0.0300858
61	0xbdd2c5f4	-0.10291663
62	0x3d9e769b	0.07737466
63	0xbba72dd1	-0.0051018973
64	0xbdd493ae	-0.1037973
65	0x3dd1c1c1	0.10242034
66	0x3cf4ac9a	0.02986746
67	0x3d0e2c62	0.034710295
68	0x399e3c29	0.0003018093
69	0x3dee0513	0.116220616
70	0xbcb6ecd6	-0.022329729
71	0x3d2f912a	0.04286305
72	0xbd121bb1	-0.03567094
73	0x3d784ab9	0.060618136
74	0x3bd774a3	0.0065751835
75	0xbc79966b	-0.015233616
76	0x3a4e2a01	0.00078645354
77	0xbdadfccf	-0.08495485
78	0x3d9f7578	0.07786077
79	0xbd54e53e	-0.051976435
80	0x3c98fc34	0.018674947
81	0xbc3cc225	-0.011520897
82	0x3cea6b13	0.02861551
83	0xbdcfe5c7	-0.101512484
84	0xbc28281d	-0.01026347
85	0x39f7d204	0.00047267985
86	0x3b8bc99a	0.004265976
87	0xbcf1f6c5	-0.029536614
88	0x3cf0739b	0.029352
89	0xbb9d3a6f	-0.0047982256
90	0xbdd87c4e	-0.10570584
91	0xbd9285c2	-0.071544185
92	0xbd968ad2	-0.073506966
93	0x3ddf1a9a	0.10893746
94	0x3d05cb93	0.032664847
95	0x3c748d10	0.01492621
96	0x3b84841e	0.00404407
97	0x3de3cd83	0.111231826
98	0xbad00a81	-0.0015872271
99	0xbd607b3e	-0.054805033
100	0x3b3a393e	0.0028415467
101	0x3dde9fe3	0.1087034
102	0xbda94fbd	-0.08267162
103	0xbd37f151	-0.04490787
104	0xbc51d136	-0.012806227
105	0xbc1128e5	-0.008859848
106	0xbd428b44	-0.047496095
107	0xbcfd5efd	-0.030929083
108	0xbe071654	-0.13192111
109	0x3c7ca354	0.0154198
110	0x3bb9a28d	0.0056651295
111	0xbd103bed	-0.0352134
112	0x3c7b492a	0.015337268
113	0xbcdcb34e	-0.026940968
114	0x3db683f9	0.089118905
115	0x3d240d39	0.040051673
116	0x3d96363a	0.07334562
117	0xbd7d8aa6	-0.061899804
118	0x3cb4d3b2	0.0220736
119	0x3da00bc1	0.07814742
120	0xbd646e11	-0.05576903
121	0x3bccc54d	0.006249106
122	0xbc257e1e	-0.010100869
123	0x3d7742c7	0.06036642
124	0x3d3e9209	0.04652599
125	0x3c8d3e16	0.017241519
126	0x3dce2930	0.1006645
127	0xbc868d7a	-0.016424883
128	0xbcdd634f	-0.027024893
129	0x3e0670ee	0.13129017
130	0x3d8cd73e	0.06876992
131	0x3d10de62	0.03536833
132	0xbb2e79ec	-0.0026622964
133	0xbdc01e5e	-0.09380792
134	0x3d87996c	0.0662106
135	0x3d496eb1	0.04917783
136	0xbd5b109b	-0.053482633
137	0xbdac631a	-0.084173396
138	0xbcab8b68	-0.020940498
139	0x3cb05909	0.02152683
140	0xbcb6f696	-0.022334378
141	0xbdb73230	-0.089451194
142	0x3c7419f9	0.0148987705
143	0xbda492ad	-0.08035789
144	0x3cab6de1	0.020926418
145	0x3d86c83b	0.0658116
146	0x3ca75a41	0.020428779
147	0x3c6289c3	0.01382679
148	0x3da12989	0.0786925
149	0x3d92efcb	0.07174643
150	0x3d101a36	0.035181247
151	0xbdc2cc50	-0.09511626
152	0xbc9fc326	-0.019502234
153	0x3d52f0fa	0.051499344
154	0x3d479d61	0.048734073
155	0xbd887572	-0.06663026
156	0x3d1f68a1	0.03891814
157	0x3d8b1781	0.067915924
158	0x3d3c4320	0.045962453
159	0xbde1c7ca	-0.11024435
160	0xbcbf2d35	-0.023336986
161	0xbdbbb994	-0.091662556
162	0xbdb33d09	-0.08751876
163	0x3c8004d5	0.015627304
164	0x3d219abc	0.039454207
165	0xbda00ed2	-0.07815327
166	0x3d90a549	0.07062776
167	0x3c11475e	0.008867113
168	0x3d2326b3	0.03983183
169	0xbd1c710f	-0.03819376
170	0x3c9c1ce6	0.019056749
171	0x3d361867	0.044456866
172	0x3d817fb8	0.063231885
173	0xbdc7c6e2	-0.09754731
174	0x3ddee694	0.10883823
175	0xbd07c97d	-0.03315114
176	0xbd9457df	-0.072433226
177	0x3d8c6b9b	0.068564616
178	0xbd395b6a	-0.045253195
179	0xbc6b6089	-0.0143662775
180	0x3d8170cf	0.06320345
181	0x3da82fa6	0.08212213
182	0x3bbca589	0.005757038
183	0x3d1542c4	0.036440626
184	0x3d5b667c	0.053564534
185	0x3da81418	0.082069576
186	0xbd24e532	-0.04025764
187	0xbd16959a	-0.036763765
188	0xbd681e20	-0.056669354
189	0xbd8e6bb2	-0.06954135
190	0x3c60428d	0.013687742
191	0x3c1dcc0b	0.009631167
192	0xbd8d4391	-0.06897653
193	0x3d847543	0.064676784
194	0xbd06c94f	-0.032906827
195	0x3d0d1e74	0.03445287
196	0xba7423b3	-0.0009313181
197	0x3cd411c5	0.02588738
198	0x3d2524f9	0.040318463
199	0xbd9f8539	-0.07789082
200	0xbdf791a0	-0.12088323
201	0x3d667a03	0.056268703
202	0xbcbb9241	-0.022896888
203	0x3cae0411	0.021242173
204	0x3cd963f7	0.026536925
205	0x3bf7ab84	0.007558288
206	0x3cf81f5a	0.030288387
207	0x3d3dbfb1	0.04632539
208	0x3c5ded46	0.01354534
209	0xbd2321d9	-0.0398272
210	0xbd38950c	-0.045064017
211	0x3ce9a5ef	0.028521506
212	0x3c3d5ae3	0.011557314
213	0xbca6886b	-0.020328721
214	0x3d575d37	0.05257913
215	0xbcb869df	-0.02251142
216	0x3d1f2d08	0.038861305
217	0x3d49b606	0.049245857
218	0xbce02166	-0.027359676
219	0x3bee7c3c	0.0072779935
220	0xbdb81249	-0.089878626
221	0x3dd3e9e6	0.10347347
222	0x3cae052f	0.021242706
223	0x3b8a42a9	0.0042193723
224	0xbc33d4d8	-0.010976039
225	0xbc8052dc	-0.01566451
226	0xbd8b92b7	-0.06815093
227	0x3cb93c88	0.022611871
228	0xbc430318	-0.011902593
229	0x3ccf133e	0.02527773
230	0x3c101f97	0.008796594
231	0x3dcf6d66	0.10128288
232	0x3d7cff32	0.06176681
233	0xbd14f6de	-0.036368243
234	0x3d2853be	0.041095488
235	0xbd502323	-0.05081476
236	0xbdd8448d	-0.1055995
237	0x3d04ce00	0.03242302
238	0x3d95cb78	0.07314199
239	0x3b976428	0.004620094
240	0xbd93481b	-0.071914874
241	0xbcceb84b	-0.025234362
242	0x3c06b27c	0.008221265
243	0x3c427029	0.011867561
244	0xbd5b76c7	-0.05358007
245	0x3db1453f	0.08655786
246	0xbcc63690	-0.02419594
247	0x3d3e6cb7	0.046490397
248	0x3da44efc	0.080228776
249	0xbbfd5669	-0.007731248
250	0xbc0cd826	-0.008596456
251	0x3cde79e1	0.027157726
252	0x3db33d59	0.087519355
253	0xbda3a39e	-0.07990192
254	0xbd729f00	-0.059233665
255	0x3d4a9aac	0.049463913

temporal_attn.temporal_layer_0.Q_embedding_weights f4 [128, 128]
0	0xbe5c253d	-0.2149858
1	0xbd25d3e3	-0.040485274
2	0xbe41d316	-0.18928179
3	0x3b7d15f6	0.0038617826
4	0x3da21b8e	0.07915412
5	0x3e3528b2	0.17691305
6	0x3d134b18	0.035960287
7	0xbe8149c6	-0.25251597
8	0xbe918cfd	-0.28427878
9	0x3e6aa662	0.22915033
10	0xbe2c41a9	-0.16821922
11	0x3e085be6	0.13316306
12	0xbe06b4c6	-0.13154897
13	0x3dcf96e3	0.10136201
14	0xbd2d3bd9	-0.042293403
15	0x3d2aee8e	0.04173141
16	0xbd22533a	-0.039630152
17	0xbc247c6e	-0.010039432
18	0x3d3d32b6	0.04619094
19	0xbd722af1	-0.059122983
20	0x3e2a603f	0.16638277
21	0x3d24d3c5	0.04024102
22	0x3c94d8cc	0.018169783
23	0xbe14bd55	-0.1452535
24	0x3e8544b2	0.26028973
25	0xbdc13e96	-0.094357654
26	0xbd297f9d	-0.041381467
27	0xbafbe9bb	-0.0019219437
28	0x3b292a3e	0.0025812532
29	0xbd22272e	-0.039588146
30	0xbe197151	-0.14984633
31	0x3e343e94	0.17601997
32	0x3d861781	0.06547452
33	0xbe43bbb7	-0.19114576
34	0xbe9dda64	-0.3083068
35	0x3e15d3e1	0.14631607
36	0xbc801582	-0.015635256
37	0xbe50d101	-0.20392229
38	0x3dacaa8c	0.08430967
39	0x3db7ef3c	0.08981177
40	0x3d43a57b	0.047765236
41	0x3e82aabd	0.25520888
42	0x3e821547	0.25406858
43	0x3e6e60ad	0.23279066
44	0xbe618114	-0.22021896
45	0x3d22d4f2	0.03975386
46	0x3e7201ca	0.23633495
47	0xbe6f1f50	-0.23351789
48	0xbdd8f95b	-0.10594436
49	0x3ca5b998	0.0202301
50	0xbd4d6333	-0.050143432
51	0xbe8a36c9	-0.26994923
52	0x3e8d0651	0.27543882
53	0xbdb92e20	-0.09042001
54	0x3d60b163	0.05485667
55	0xbdf91690	-0.121625066
56	0x3cc6f747	0.024287833
57	0x3e41a4d0	0.18910527
58	0xbda66a3b	-0.081257306
59	0xbd040d86	-0.03223946
60	0xbe08ede0	-0.13371992
61	0xbe824497	-0.25442955
62	0xbe2b7e7d	-0.1674747
63	0x3cff9128	0.031197146
64	0xbe53c632	-0.20681074
65	0x3cf8f7bf	0.030391572
66	0x3e389ab6	0.18027768
67	0x3c04530b	0.00807644
68	0xbce40027	-0.027832104
69	0xbdbd5c53	-0.09246125
70	0xbdb60478	-0.08887571
71	0x3da2b4f0	0.07944667
72	0x3da1294e	0.07869206
73	0xbcac4308	-0.021028057
74	0x3cb8a7ce	0.022540953
75	0x3cf88132	0.030335043
76	0x3daba9b8	0.08381981
77	0xbbb5e526	-0.0055509983
78	0xbddffcb6	-0.10936873
79	0x3e195af9	0.1497611
80	0xbc99ee78	-0.018790469
81	0xbda43577	-0.0801801
82	0x3dfa572f	0.1222366
83	0xbe5d6e0d	-0.21624012
84	0xbe1f8f7c	-0.15582079
85	0x3d82ea0f	0.063922994
86	0x3df74583	0.12073805
87	0x3d83d3c8	0.064368784
88	0x3da30943	0.07960751
89	0x3e35a842	0.17739967
90	0x3d62de4a	0.055387773
91	0xbe56e21b	-0.2098469
92	0xbdaabce2	-0.08336808
93	0xbdcda539	-0.10041279
94	0xbd877796	-0.06614606
95	0x3d5a6805	0.053321857
96	0x3d7da9ac	0.06192939
97	0xbc4e6aba	-0.012598688
98	0x3d317c7a	0.0433316
99	0xbb4bf0e8	-0.0031118933
100	0x3cd19f9d	0.025588805
101	0x3da4704d	0.08029232
102	0xbd8a01c5	-0.06738619
103	0xbde7a87e	-0.11311434
104	0x3c83cffe	0.01609039
105	0x3e19b002	0.15008548
106	0x3d48de9c	0.04904042
107	0x3df38d4f	0.11892187
108	0x3e5a728b	0.21332757
109	0x3d434e4f	0.047682103
110	0xbe811b44	-0.25216115
111	0x3deb6260	0.11493373
112	0x3e315778	0.17318523
113	0xbe27d99d	-0.16391607
114	0xbd4920b3	-0.04910345
115	0xbe3be7b1	-0.18350102
116	0x3e02bb5f	0.12766789
117	0xbca67f02	-0.020324234
118	0xbd01081e	-0.03150188
119	0xbdc38677	-0.095471315
120	0x3e0e16a8	0.1387583
121	0xbd9388ea	-0.07203849
122	0xbd81bc0d	-0.06334696
123	0x3c59aa53	0.013285237
124	0xbd8512e0	-0.06497741
125	0x3c810f8c	0.015754484
126	0xbcc6f0c3	-0.024284726
127	0x3c6a86ae	0.014314337
128	0xbe43c200	-0.19116974
129	0x3db6beb3	0.08923092
130	0x3df3c622	0.11903025
131	0x3c9fc33d	0.019502277
132	0xbde00a1f	-0.109394304
133	0x3e1942ff	0.14966963
134	0xbde37f10	-0.111082196
135	0xbd05cce6	-0.03266611
136	0x3e20c524	0.15700203
137	0xbe4d0362	-0.20020822
138	0x3e75e655	0.24013646
139	0x3d9db98a	0.077014044
140	0xbdfc4cb9	-0.12319321
141	0xbe476b52	-0.19474533
142	0xbe5d280c	-0.21597308
143	0xbd859fdf	-0.065246336
144	0x3dcf35e4	0.10117701
145	0xbd6716b6	-0.056418143
146	0x3ddf2928	0.10896522
147	0x3d3d0c5a	0.046154357
148	0xbe75ba2d	-0.23996802
149	0xbcddf81f	-0.027095852
150	0x3cdd3cdf	0.027006565
151	0x3e560cd0	0.20903325
152	0x3c4738ca	0.012159536
153	0xbe90fe7e	-0.28319162
154	0x3de214bd	0.11039112
155	0xbdc78d3f	-0.097437374
156	0xbe0ab489	-0.13545431
157	0xbce83e97	-0.028350158
158	0xbe7686dd	-0.24074884
159	0x3e3bbff5	0.18334945
160	0x3cd4dc18	0.025983855
161	0x3e23301a	0.15936318
162	0x3cbb3c50	0.022855908
163	0xbd8362ee	-0.06415354
164	0x3a61bb98	0.00086110225
165	0xbd1a79f8	-0.037713975
166	0xbd9a5b2f	-0.07536923
167	0xbe4b764c	-0.19869345
168	0x3d79aa01	0.060953144
169	0xbe1617a1	-0.14657451
170	0x3cd38f52	0.025825176
171	0x3a6ec7bd	0.0009108743
172	0xbde3c5ae	-0.11121689
173	0x3c0dc552	0.008653002
174	0x3d82a271	0.063786395
175	0x3e61ca65	0.22049864
176	0x3e0744dd	0.13209863
177	0x3d8e7d63	0.06957509
178	0x3e5bcade	0.21464106
179	0x3e3d34f2	0.18477228
180	0xbdd7b793	-0.10533061
181	0xbe2c8698	-0.16848218
182	0x3d94ed7c	0.07271859
183	0xbd8690c6	-0.06570582
184	0x3e5eec1e	0.21769759
185	0xbdbd93d5	-0.09256712
186	0xbcfa1c8f	-0.030531196
187	0x3d8bd6d4	0.068280846
188	0xbdc2dda0	-0.09514928
189	0x3e81f851	0.25384763
190	0xbb918da9	-0.004441936
191	0x3eae2a33	0.3401657
192	0x3e801568	0.25016332
193	0x3e23b425	0.15986688
194	0xbe1133be	-0.14179894
195	0x3e376da6	0.17912921
196	0xbdf72d59	-0.12069196
197	0x3d334c4e	0.04377394
198	0xbe2d292d	-0.16910239
199	0xbe58bba8	-0.21165335
200	0x3db5e988	0.08882433
201	0x3e1d14fc	0.15340036
202	0x3cd0a54e	0.025469448
203	0xbd1ce6c3	-0.03830601
204	0xbba82db5	-0.005132402
205	0x3dd3f8a8	0.10350162
206	0x3e785d89	0.24254431
207	0x3e23cb2d	0.15995474
208	0x3ea3d2d2	0.3199678
209	0x3e295189	0.1653501
210	0xbdded5ab	-0.10880598
211	0x3e1a5faf	0.15075563
212	0x3dfed743	0.12443402
213	0x3d2d9aa6	0.042383812
214	0xbe589d85	-0.21153839
215	0x3e47cee3	0.19512515
216	0x3e148e6b	0.14507453
217	0x3ddcc78e	0.107802495
218	0x3d2381d4	0.039918736
219	0x3dd4a911	0.10383809
220	0xbd7aabe4	-0.061199084
221	0x3c95edab	0.018301805
222	0xbdd23807	-0.102645926
223	0xbe5136a1	-0.20430996
224	0xbdf9d61a	-0.1219904
225	0x3d93ba79	0.07213301
226	0x3ddefcc8	0.10888058
227	0x3ddfe81c	0.10932943
228	0x3ce5b467	0.028040124
229	0x3e34c2be	0.17652413
230	0xbd51533f	-0.05110478
231	0x3e3c1f4b	0.18371312
232	0xbdb48e9b	-0.08816262
233	0x3c4390a9	0.011936345
234	0x3bf5882e	0.0074930405
235	0xbc73685c	-0.014856424
236	0x3ad7d960	0.0016467981
237	0x3befa479	0.007313308
238	0xbe18dfdb	-0.14929144
239	0xbd9f27c0	-0.077712536
240	0xbe5be7ed	-0.21475191
241	0xb9ccb3a7	-0.00039043764
242	0x3e19f97c	0.15036577
243	0x3c8a9a55	0.016919294
244	0xbd885412	-0.0665666
245	0x3e1f1027	0.15533505
246	0xb9adbf2c	-0.00033139565
247	0x3d4df4ee	0.05028241
248	0xbdb62fa8	-0.088958085
249	0x3d9615f4	0.07328406
250	0xbd862754	-0.0655047
251	0x3dc9d832	0.09855689
252	0xbd4d8493	-0.05017526
253	0xbc02a8ac	-0.007974785
254	0xbc00c80d	-0.007860196
255	0xbe05cb20	-0.13065767

temporal_attn.temporal_layer_0.K_embedding_weights f4 [128, 128]
0	0xbd8950df	-0.06704878
1	0xbe29769e	-0.16549155
2	0x3ced49a7	0.028965784
3	0x3d8bb550	0.06821692
4	0xbcf3bd82	-0.02975345
5	0xbe4c2133	-0.1993454
6	0xbdb90afd	-0.09035299
7	0x3e0ab81c	0.13546795
8	0xbd0cb0bd	-0.03434824
9	0x3d696ab0	0.05698651
10	0xbdb3ea64	-0.08784941
11	0x3c7f7ebc	0.015594181
12	0x3da0e019	0.07855243
13	0x3e4d1247	0.20026504
14	0x3e1043bc	0.14088339
15	0x3de77662	0.113018766
16	0xbd703e23	-0.05865301
17	0xbe347393	-0.17622213
18	0xbcde8545	-0.027163157
19	0xbe029eaf	-0.12755845
20	0xbd020f0e	-0.03175264
21	0x3d5c12fa	0.053729035
22	0x3dffe332	0.12494506
23	0x3e4a8d2b	0.19780414
24	0xbd4fd7c7	-0.05074289
25	0x3e6b963f	0.23006533
26	0x3d248c1b	0.040172677
27	0xbe02b3a2	-0.12763837
28	0xbd9db13b	-0.0769982
29	0xbe5f9616	-0.21834597
30	0xbdfe3566	-0.12412529
31	0x3e0f3316	0.13984331
32	0x3db25b55	0.087088265
33	0xbe795f19	-0.24352683
34	0xbe80f8f6	-0.25189942
35	0x3e121718	0.14266622
36	0x3e8d7de3	0.27635106
37	0xbe93f106	-0.28894824
38	0x3d2e34d9	0.04253087
39	0xbe4e2beb	-0.20133941
40	0xbe5015c7	-0.20320807
41	0xbe05b268	-0.13056338
42	0xbd2b6aac	-0.041849777
43	0x3dba5b1d	0.0909941
44	0xbcad52ed	-0.021157706
45	0x3cad772b	0.021174988
46	0x3e2f3b90	0.17112565
47	0xbd28530f	-0.041094836
48	0x3e390b93	0.18070821
49	0xbde1dafd	-0.11028097
50	0x3decd3a2	0.11563803
51	0x3e892ddb	0.26792797
52	0x3d6fb578	0.05852267
53	0xbda5f790	-0.081038594
54	0x3db0c560	0.08631396
55	0xbe56011b	-0.20898859
56	0xbd1788dd	-0.036995757
57	0x3d8c2e24	0.06844738
58	0x3cda716a	0.026665408
59	0xbba6a6a4	-0.005085783
60	0xbe96765b	-0.29387173
61	0xbd5608f8	-0.052254647
62	0xbe7059cf	-0.2347176
63	0x3e8d7581	0.2762871
64	0x3e29ee36	0.16594777
65	0xbd9c79e7	-0.076404385
66	0x3e622371	0.22083832
67	0x3e376449	0.1790935
68	0xbd5e31b5	-0.054246623
69	0xbe1d1260	-0.15339041
70	0xbe91d144	-0.2847997
71	0x3d54f206	0.051988624
72	0x3d9aff0b	0.07568177
73	0xbdbf0571	-0.0932721
74	0x3bcf5920	0.006327763
75	0xbe5fdbed	-0.21861239
76	0xbe8f7ff9	-0.28027323
77	0xbdda282f	-0.10652196
78	0xbdc526a1	-0.096265085
79	0x3ca2702a	0.019828875
80	0xbdf5f54d	-0.12009678
81	0x3d307373	0.04307885
82	0xbc8fd1dd	-0.017556125
83	0xbdf7516a	-0.120760754
84	0x3e759de9	0.23986019
85	0xbda513da	-0.08060427
86	0x3cf9ca07	0.030491842
87	0x3bffd5d0	0.007807471
88	0x3dd79235	0.10525934
89	0xbe1fa0ed	-0.15588732
90	0x3e560c42	0.20903113
91	0x3e564d31	0.20927884
92	0xbd88e364	-0.06683996
93	0xbd0d959d	-0.03456651
94	0x3cfcf625	0.03087909
95	0xbd05ec1e	-0.032695882
96	0x3dda92d0	0.106725335
97	0xbe10b91f	-0.14133118
98	0xbdcaf583	-0.09910109
99	0xbe709960	-0.23496008
100	0xbe1c0afe	-0.15238568
101	0x3ca2dde7	0.019881202
102	0xbdb9f27d	-0.09079454
103	0xbe01ac08	-0.12663281
104	0x3af0eb4b	0.001838067
105	0xbd5ed83d	-0.05440544
106	0xbe3d077d	-0.18459888
107	0x3e881075	0.26575056
108	0x3cfb4cd6	0.030676287
109	0xbc151963	-0.009100291
110	0xbe45cf2c	-0.19317311
111	0x3e692431	0.22767712
112	0x3d95c287	0.07312494
113	0xbe5b92cd	-0.21442719
114	0xbe2bebf2	-0.16789225
115	0x3d7b940d	0.06142049
116	0x3b8147fe	0.0039453497
117	0xbd8deac9	-0.06929547
118	0xbe6e9ca1	-0.23301937
119	0xbcca5911	-0.024700673
120	0x3e81fdbb	0.25388893
121	0xbe6849b5	-0.22684367
122	0x3aa4204a	0.001252183
123	0xbe4b1e3c	-0.19835752
124	0x3c9d5a34	0.019208051
125	0xbccdd472	-0.025125716
126	0x3d51a854	0.05118592
127	0x3cc735af	0.02431759
128	0x3e0428b5	0.12906154
129	0xbc8937e3	-0.016750282
130	0x3e42e1d9	0.19031467
131	0xbe853c5b	-0.2602261
132	0xbe3b83ae	-0.1831195
133	0x3dc75a37	0.09734004
134	0xbdbd07ca	-0.09230001
135	0x3d576200	0.052583694
136	0x3c8b3bc9	0.016996281
137	0xbe397622	-0.1811147
138	0x3e251872	0.16122606
139	0xbe5bf1f5	-0.21479018
140	0x3e314ccd	0.17314453
141	0xbd43bcd3	-0.0477875
142	0x3d2784fa	0.0408983
143	0xbd95a6f7	-0.07307237
144	0x3dd3dcf9	0.103448816
145	0x3dad707b	0.084687196
146	0xbc89bd2f	-0.016813843
147	0x3ce39c8e	0.027784612
148	0x3db63e76	0.08898632
149	0x3dedb319	0.11606426
150	0x3ad2c27b	0.0016079688
151	0x3e266359	0.16248836
152	0xbc6fd8f0	-0.014639124
153	0xbe5435ca	-0.20723644
154	0xbd2a95b2	-0.041646667
155	0xbdd472cf	-0.103734605
156	0x3d527476	0.051380597
157	0xbd921b9a	-0.07134171
158	0x3d0e8060	0.034790397
159	0xbaae7b89	-0.0013311963
160	0x3e79c89d	0.24392934
161	0x3e8a7bd1	0.2704759
162	0x3e8680f9	0.26270273
163	0xbeb098c7	-0.3449156
164	0xbc4d539f	-0.012532144
165	0x39fe2efb	0.00048481658
166	0x3e397cdc	0.18114036
167	0xbcf0fb11	-0.029416593
168	0x3dd5ac1c	0.10433218
169	0xbe2dee91	-0.16985537
170	0xbdc7c421	-0.097542055
171	0xbd26af3a	-0.040694453
172	0x3d4f300a	0.050582923
173	0xbdbe75f4	-0.092998415
174	0xbe3b2550	-0.18275952
175	0x3d490218	0.049074262
176	0xbdb239cd	-0.08702431
177	0xbdeb567a	-0.114911035
178	0x3c2941d9	0.010330641
179	0xbe8784a2	-0.26468378
180	0x3d66723b	0.056261282
181	0x3cafc706	0.021457206
182	0xbde38a88	-0.11110407
183	0xbd1825eb	-0.037145536
184	0xbdd3e0ff	-0.10345649
185	0xbd1ef7a4	-0.038810387
186	0x3e7b555e	0.24544284
187	0xbe12102c	-0.14263982
188	0x3e6d17e6	0.23153648
189	0xbe53d836	-0.20687947
190	0x3cb3a45d	0.02192896
191	0xbe3c1d55	-0.18370564
192	0x3dd404af	0.10352456
193	0xba8c0bf7	-0.0010684718
194	0xbe4586cc	-0.19289702
195	0x3dbedac1	0.09319068
196	0x3e85784d	0.26068345
197	0xbd874432	-0.06604804
198	0x3df04dc3	0.11733582
199	0xbe09aaf6	-0.13444123
200	0x3d665609	0.056234393
201	0xbd22a222	-0.039705403
202	0x3cd5f5b2	0.026118133
203	0x3e52c626	0.205834
204	0xbc0719a5	-0.00824586
205	0x3a8a0e70	0.0010532867
206	0xbd6d1e76	-0.057890378
207	0x3ccc90e9	0.024971442
208	0x3e345ce4	0.1761356
209	0xbdcf1037	-0.101105146
210	0x3d6f05b2	0.05835504
211	0x3d651dfb	0.055936795
212	0xbe2c213f	-0.16809557
213	0xbb266ad6	-0.002539327
214	0x3e0230d8	0.12713945
215	0xbe0b8118	-0.13623464
216	0xbdb403f5	-0.08789817
217	0x3d2a9175	0.041642625
218	0x3e52133e	0.20515153
219	0x3ca5227b	0.020158043
220	0x3dd47cbb	0.10375353
221	0x3e696602	0.22792819
222	0xbe4ad34c	-0.19807166
223	0xbd6438dd	-0.05571829
224	0x3d361dd7	0.04446205
225	0x3d7dd7fe	0.061973564
226	0xbd0ff4da	-0.035145618
227	0xbe4d3fa4	-0.20043808
228	0x3db8b777	0.09019368
229	0xbd2f2e99	-0.04276905
230	0xbe7efa21	-0.24900104
231	0x3e8da4d7	0.27664825
232	0xbdc6ea45	-0.09712652
233	0x3e05c865	0.13064726
234	0x3b888f04	0.0041674394
235	0xbe7e76e9	-0.24850048
236	0xbb4bdf86	-0.0031108572
237	0x3bf523ef	0.0074810903
238	0x3d8f35ec	0.06992707
239	0xbda7153e	-0.081583485
240	0xbd0d6974	-0.034524396
241	0xbd3a8070	-0.045532644
242	0x3e61ac27	0.22038327
243	0xbdf6e56f	-0.1205548
244	0xbd5029f0	-0.050821245
245	0x3e935b41	0.2878056
246	0xbcae350b	-0.021265527
247	0xbdacbe7e	-0.08434771
248	0x3e75367f	0.2394657
249	0xbdf28efb	-0.118436776
250	0x3d703043	0.058639776
251	0xbab2e261	-0.0013647788
252	0x3d1a69fe	0.03769874
253	0x3d960a9c	0.07326242
254	0x3c795779	0.015218609
255	0x3e3ade98	0.18248975

temporal_attn.temporal_layer_0.V_embedding_weights f4 [128, 128]
0	0xbdbcf771	-0.09226883
1	0x3c651d5f	0.013984053
2	0xbcee36ed	-0.029078925
3	0xbbf266c1	-0.007397503
4	0xbb9719e1	-0.0046112393
5	0xbdcc3265	-0.099705495
6	0xbd3b583a	-0.045738436
7	0x3e022c64	0.12712246
8	0x3d82c29c	0.06384775
9	0xbe0ffd3e	-0.14061448
10	0x3d09e079	0.03366134
11	0xbc21626d	-0.009850127
12	0x3e209557	0.15681969
13	0x3df695db	0.120403014
14	0xbd6b231f	-0.05740654
15	0xbe0876ff	-0.13326643
16	0x3bbef1c4	0.0058271606
17	0xbc283332	-0.010266112
18	0xbc6d124c	-0.014469694
19	0xbc991485	-0.018686542
20	0xbdab6da1	-0.083705194
21	0x3d28e3bc	0.04123281
22	0x3df201d9	0.11816759
23	0xbe1a3e97	-0.15062939
24	0xbca3dcd5	-0.020002762
25	0xbdcc41e1	-0.09973503
26	0x3d2e2d8a	0.0425239
27	0x3dcebc00	0.10094452
28	0x3db22d91	0.08700097
29	0x3e172419	0.14759864
30	0xbda04218	-0.078251064
31	0x3d15237c	0.036410794
32	0xbda2e123	-0.07953098
33	0xbe1593d9	-0.1460718
34	0xbd86c247	-0.06580024
35	0xbc12389d	-0.0089246305
36	0x3e7c61b0	0.2464664
37	0x3dc1a18e	0.09454642
38	0x3dc57b46	0.09642653
39	0xbd1de14a	-0.03854493
40	0x3dadff2e	0.08495937
41	0xbd84d9ba	-0.064868405
42	0xbdfd737e	-0.12375544
43	0xbda461e8	-0.08026487
44	0xbc14cfa9	-0.009082713
45	0xbcd188c1	-0.025577905
46	0xbe19cde3	-0.15019946
47	0xbbb15fab	-0.005413016
48	0xbd5babbe	-0.053630583
49	0xbddf5096	-0.109040424
50	0xbda8922b	-0.08231004
51	0x3e4768ff	0.19473647
52	0x3dbcabb6	0.09212439
53	0x3d335a81	0.043787483
54	0x3d9f8278	0.07788557
55	0xbcd88044	-0.02642835
56	0x3d0690ff	0.032853123
57	0x3cd085cb	0.025454422
58	0xbcad4ef6	-0.021155816
59	0xbdf2c556	-0.11854045
60	0x3bf49161	0.0074636196
61	0xbd6cee3a	-0.057844378
62	0x3e487456	0.19575629
63	0x3e1106a7	0.14162694
64	0xbdf46a7e	-0.11934374
65	0xbd5365b6	-0.05161067
66	0x3d967341	0.07346202
67	0x3cdf07d6	0.027225416
68	0xbe480c34	-0.19535905
69	0x3e2f7d99	0.17137755
70	0xbe08a69c	-0.13344806
71	0xbe230faa	-0.15923944
72	0x3ae8f1a0	0.0017772205
73	0xbe63c251	-0.22242095
74	0xbdfdfaba	-0.12401338
75	0xbd955ded	-0.072933055
76	0x3b7e9bc3	0.0038850165
77	0x3d5a9343	0.053363096
78	0x3d82fb9b	0.06395646
79	0x3e28445d	0.16432329
80	0x3d434752	0.04767544
81	0xbd89a2a0	-0.067204714
82	0xbceec94e	-0.029148724
83	0xbb00f04e	-0.0019674483
84	0x3ccd0f8b	0.025031826
85	0xbd68fc61	-0.056881312
86	0xbbb1e9f7	-0.005429502
87	0x3d00f213	0.03148086
88	0xbdf98c00	-0.12184906
89	0xbdc1715c	-0.0944545
90	0xbda550f8	-0.08072084
91	0xbd33bd89	-0.043881927
92	0xbc4b5490	-0.012410298
93	0x3cc13475	0.023584584
94	0xbd1e2207	-0.03860667
95	0xbd55ca28	-0.052194744
96	0x3da4f343	0.08054211
97	0xbd5ea5e1	-0.054357413
98	0xbdc09f0c	-0.09405336
99	0xbd07b790	-0.033134043
100	0xbe140655	-0.1445554
101	0x3d24e033	0.040252876
102	0x3dbca11f	0.09210419
103	0xbd03b9a3	-0.03215946
104	0xbdbc25e6	-0.09186916
105	0x3d9128f3	0.070878886
106	0xbe09990b	-0.13437288
107	0x3d887e28	0.066646874
108	0xbd29d3a1	-0.04146159
109	0x3d1e57d5	0.038657982
110	0xbd04f3b2	-0.03245897
111	0x3d1db0e9	0.038498793
112	0x3cbc5c20	0.022993147
113	0x3ddd6ea8	0.10812122
114	0xbddffcac	-0.10936865
115	0x3b9fe74a	0.0048798667
116	0xbe05dc57	-0.13072334
117	0xbaa43a53	-0.0012529589
118	0x3db10784	0.086440116
119	0x3d11c5d3	0.03558905
120	0x3db7afc6	0.08969073
121	0x3d2977ee	0.04137414
122	0x3dc9090b	0.09816178
123	0x3d915135	0.07095567
124	0xbcf18af3	-0.029485201
125	0x3b9838d1	0.004645445
126	0x3d10ae67	0.035322573
127	0x3e202643	0.15639596
128	0x3d30081d	0.042976487
129	0xbe453d74	-0.19261724
130	0x3dc1c14a	0.09460695
131	0x3d6a4ef1	0.05720419
132	0xbe0b57b6	-0.13607678
133	0xbd12a4bb	-0.03580163
134	0x3da40f61	0.08010746
135	0xbcfd96a2	-0.030955616
136	0xbe33cb0a	-0.17557922
137	0x3d8771e5	0.066135205
138	0x3db159aa	0.0865968
139	0xbd2b10c9	-0.041764054
140	0xbdfac60c	-0.12244806
141	0xbdccf1f5	-0.10007087
142	0xbdf22814	-0.118240505
143	0x3d5a533b	0.05330203
144	0x3cab42a3	0.020905798
145	0x3c8e6975	0.01738427
146	0xbd946f41	-0.072477825
147	0x3e1c5ad5	0.15269025
148	0xbdba334e	-0.09091817
149	0x3d38141a	0.044941045
150	0x38dab589	0.000104288636
151	0xbdcf8308	-0.10132414
152	0x3d618153	0.055054974
153	0xbdedc9f6	-0.116107866
154	0xbe2a9228	-0.16657317
155	0xbd54aa2d	-0.051920105
156	0x3cbff2e6	0.023431253
157	0xbd93151f	-0.07181763
158	0xbde77709	-0.11302001
159	0xbe3a8e4b	-0.18218343
160	0xbd935d38	-0.071955144
161	0x3e0fdb65	0.14048536
162	0xbda2ebb3	-0.07955112
163	0xbe0140fc	-0.12622446
164	0x3e117301	0.14204027
165	0x3e3fada7	0.18718587
166	0xbda1ec60	-0.07906413
167	0x3d9e696f	0.077349536
168	0xbd77beac	-0.060484573
169	0x3d652a31	0.05594844
170	0xbe2debc7	-0.16984473
171	0xbdfe900a	-0.12429817
172	0xbc887be7	-0.016660644
173	0xbc951486	-0.018198263
174	0x3c96e833	0.018421268
175	0x3d807454	0.06272188
176	0xbe3cd1ae	-0.18439361
177	0xbdc9d34b	-0.09854754
178	0xbdb39b82	-0.08769895
179	0xbe0929bf	-0.13394831
180	0x3db20b4b	0.0869356
181	0xbe19651c	-0.14979976
182	0x3e211b5a	0.1573309
183	0xbd890420	-0.0669024
184	0x3d588410	0.05286032
185	0x3de01acb	0.1094261
186	0x3def4d15	0.11684624
187	0xbda2c2bc	-0.07947299
188	0xbdcf82f6	-0.10132401
189	0xbd2e01d6	-0.04248222
190	0xbc594275	-0.0132604735
191	0xbceede5b	-0.029158762
192	0x3e22a8d3	0.15884714
193	0x3c0ddf7e	0.008659242
194	0xbd940cba	-0.0722899
195	0xbe0899ec	-0.13339967
196	0x3d97bd7a	0.07409187
197	0xbd0f9196	-0.03505095
198	0x3d4b629a	0.04965458
199	0x3a819451	0.0009886121
200	0xbcf838c6	-0.03030051
201	0x3def4896	0.116837665
202	0xbd52afb3	-0.05143709
203	0x3e20e5ef	0.15712713
204	0xbe2212a7	-0.15827428
205	0xbddc630b	-0.107610784
206	0xbd2a2418	-0.041538328
207	0xbcb2b942	-0.021816853
208	0xbd8916b9	-0.06693787
209	0x3dc6fa47	0.09715705
210	0xbcb98807	-0.02264787
211	0xbbeaf4d5	-0.0071702995
212	0xbc6ac4f3	-0.014329183
213	0xbd99d9ac	-0.07512221
214	0x3de05ed9	0.10955591
215	0x3d750b59	0.059825275
216	0x3e0780ad	0.1323268
217	0xbdbe07ff	-0.09278869
218	0x3db480d3	0.08813634
219	0xbd5ede86	-0.054411434
220	0x3d0903da	0.03345094
221	0xbd3e3ac3	-0.04644276
222	0x3ddecb59	0.10878629
223	0xbc20bf60	-0.009811252
224	0xbdcce029	-0.10003693
225	0x3e3680d4	0.17822582
226	0xbde80be6	-0.113303944
227	0x3d832220	0.06402993
228	0xbd38f8fb	-0.04515932
229	0x3dc129c7	0.094317965
230	0x3d67ad11	0.056561533
231	0x3df17ab4	0.11790982
232	0xbc8be1ea	-0.017075498
233	0x3da813bc	0.08206889
234	0xbe0d9aee	-0.13828632
235	0xbcc46e4c	-0.023978375
236	0xbd12f3dd	-0.035877097
237	0xbdd278b8	-0.102769315
238	0xbd3b79ea	-0.045770563
239	0xbd784817	-0.060615625
240	0x3b32f739	0.0027308
241	0xbe09014c	-0.13379401
242	0xbdc3a116	-0.09552209
243	0xbdc7ec68	-0.09761888
244	0xbc8ceda8	-0.017203167
245	0xbb003381	-0.0019561949
246	0xbc724fc3	-0.0147895245
247	0x3d925075	0.07144252
248	0x3c535a81	0.012899996
249	0xbdccea09	-0.10005576
250	0xbdfb463e	-0.12269257
251	0xbe03ff63	-0.12890391
252	0xbdf3839d	-0.118903376
253	0x3d1bf145	0.03807189
254	0xbe333e00	-0.1750412
255	0x3e0d1de6	0.13780937
